basis_demo/params.pth (torch, 912160 bytes, 19 tensors)

conv1.0.weight f4 [64, 1, 3]
00000000: 50c7 053f abb0 093f 233f 683e 203f 143f
00000010: 3637 be3b b69f 84be 9ea0 41be 5a30 073d
00000020: 1be9 abbe c750 31be 1a63 983e bbcb 6bbe
00000030: 71a6 bdbe 44f5 cd3e 6198 653e 8878 9f3e
00000040: 98eb f93e 5dc7 093f 7d06 79be 33da cfbe
00000050: 951c f2be 209a d3bd 2d60 e03e 06fc f63e
00000060: 40b8 e73e babc 05bf 3ac6 9a3e b1a3 bc3e
00000070: a6bf 783e 9b36 82be b3ac 9abd 8bb9 c03d
00000080: cf50 f0be cbe8 ad3e 8305 413d d2cf cdbe
00000090: 6519 ab3e 9920 973d 086c 953e 23e2 e23e
000000a0: 4201 23be 0798 e4be 5bcf e3bd 4b67 00be
000000b0: ed8c 5a3d 64bf 6d3c 7c42 a9be 3d0d 023e
000000c0: f478 493e 007f eabe c912 08bf 07ff 89be
000000d0: b2c3 57bc b230 9fbd e04a e7be f8c3 ccbe
000000e0: 3247 903e 652d c5be d9c6 6c3d 0ba3 523e
000000f0: 6d31 a9bd 3bc2 b13e 9b3f 91be f088 e9be
00000100: beb7 c53e f85b f03e 7715 83be 9bfe 8f3e
00000110: 6065 4e3e 1e92 453e b014 d2be 950b 49bd
00000120: fb19 f83d da83 15bf 76a9 0abf 5e7a 3d3e
00000130: 74fe 9fbe e969 78be a9fd 863e b626 09bf
00000140: edc3 ccbe a86f a3be 6a04 193e e749 23bd
00000150: ee57 dd3e cb7b d4bd 8301 f03e 2b50 58be
00000160: 9c13 803d 8429 993e 7265 cf3d efcf 2bbd
00000170: 0b5f 0a3f 01b3 5ebe f172 453e c244 0f3f
00000180: 2d4c 443d 02fa 0bbf 94db 5cbd 4f9d 5e3e
00000190: b1c5 4ebd ccd0 b4be 54c9 ba3e 7412 01bf
000001a0: ad30 be3e 52a3 12bf 004f 1a3e 037d f53e
000001b0: 0cc2 d1bc 12de ab3e 8241 05bf c554 ccbe
000001c0: 6908 ed3e eeba 083f 2ddf 14bf de86 633e
000001d0: 8778 4f3e 613f e6be e2fe 8cbe 1906 aabd
000001e0: 2f62 b7be 0ce9 a13e 9bbb f53e c809 fa3e
000001f0: 49ab 0f3f 5b63 ed3e 5e84 33be 5cba 9dbe
00000200: a0d9 95be a919 003f d013 873e ad2b b2be
00000210: f8f3 8e3e ca68 90be ca95 eebe 4333 38bc
00000220: bc88 703c 3863 15be 2d3b f53e f86d 103f
00000230: 3348 eebe 3548 c9be 6fd4 e73e 7f66 58be
00000240: 962f edbd a221 6abe 8aca 15bf a4f3 fabd
00000250: 9ae2 a43e e516 d3bd 2319 cf3d 0a56 91bd
00000260: e0ec 113e d8d6 c13d 4694 103f ac82 cabe
00000270: bfd5 80bc 7247 86bd 20fd f4bd 07ce acbe
00000280: 95dc dabe 0439 cabd 813c f13e 3ae4 4bbe
00000290: 7e4a 913e 5c20 d2be a765 cf3e fa88 02bf
000002a0: cadb a8be 334e 01be 3b54 84be a3e8 5fbe
000002b0: 4aaa a0be 01d6 653d fe9c c3be 7181 36bd
000002c0: 3bae df3e 9d28 c13e 2792 0c3e b649 d5be
000002d0: b707 9d3e c474 fabc 1820 383e 2bad de3e
000002e0: a64c d23e f16a cd3e 3cd2 71be eb7b afbd
000002f0: f876 303e 38a2 043f f180 103f 5a9f a0bd
0.5225725 0.537852 0.22680335 0.5790882 0.0058049215 -0.259031 -0.18908927 0.033005096
-0.33576283 -0.1731597 0.29763108 -0.23026936 -0.37041047 0.40226185 0.22421409 0.31146646
0.48812556 0.5381983 -0.24318881 -0.4059616 -0.4728743 -0.103321314 0.43823376 0.48239154
0.4525776 -0.522411 0.3022936 0.36843637 0.24291858 -0.25432286 -0.07552471 0.094103895
-0.46936652 0.3396667 0.047124397 -0.40197617 0.33417812 0.073792644 0.29183984 0.44313154
-0.15918449 -0.44647238 -0.11123534 -0.12539403 0.053357054 0.014510963 -0.33058536 0.12700363
0.19675046 -0.45800018 -0.53153664 -0.26952383 -0.013169216 -0.0777296 -0.45174313 -0.39993262
0.28179318 -0.38511196 0.057806823 0.20570008 -0.0826138 0.347185 -0.2836884 -0.45612288
0.38616747 0.46945167 -0.25602314 0.28123936 0.20155859 0.1929402 -0.41031408 -0.04908331
0.121143304 -0.58404315 -0.54164827 0.1850371 -0.3124882 -0.24259152 0.26365402 -0.53574693
-0.3999323 -0.31921124 0.1494309 -0.0398654 0.43231148 -0.10375174 0.46876153 -0.21124332
0.0625374 0.29914486 0.10126771 -0.041946348 0.54051274 -0.21747972 0.19282128 0.5596429
0.04792421 -0.54678357 -0.053920344 0.21739696 -0.050481502 -0.3531555 0.36481726 -0.5041878
0.37146512 -0.5728046 0.15069199 0.4794694 -0.025605224 0.33567864 -0.5205308 -0.39908424
0.4629548 0.5341023 -0.5815304 0.22219416 0.20260821 -0.4497023 -0.2753821 -0.08301944
-0.35817096 0.31623113 0.47994694 0.48835588 0.56120735 0.46364865 -0.17530963 -0.30806243
-0.29267597 0.50039154 0.26382303 -0.34798947 0.27920508 -0.28204948 -0.46598655 -0.0112426905
0.0146810375 -0.1458863 0.4789671 0.564178 -0.4653946 -0.39312902 0.4527926 -0.21132849
-0.11581342 -0.22864392 -0.58512175 -0.12253502 0.32204133 -0.10307101 0.10112216 -0.07096489
0.14250517 0.09464806 0.5647625 -0.3955282 -0.015726922 -0.06556596 -0.11962342 -0.33750936
-0.42746416 -0.09874156 0.47116473 -0.1991128 0.28377146 -0.41040313 0.40507242 -0.5099026
-0.32980186 -0.12627487 -0.25845513 -0.21866088 -0.3137992 0.056112293 -0.38205713 -0.04455704
0.43687615 0.37726298 0.13727628 -0.416578 0.30669948 -0.030573256 0.17980993 0.43491492
0.41074103 0.40120652 -0.23615354 -0.08568557 0.17232883 0.51810026 0.5644675 -0.07842894

conv1.0.bias f4 [64]
00000000: a0b4 153e 9b0a 0ebd 2867 4ebc 0414 8c3e
00000010: c04f da3e a8d1 5bbe 9863 1cbd 1db4 503e
00000020: ed95 31be 4ae4 393e e012 e83e 6265 4e3e
00000030: fdb8 b9be 4d53 f8be f3f4 39be 00ff e5be
00000040: 785e 083f 2861 c7be 76df aebd 8155 733d
00000050: 5f37 dc3e ca3b f23c c7d9 11be 7c24 0cbe
00000060: f219 973d 2d0d 88be 24d7 94be 8127 f6bd
00000070: 7cfe e6bd df20 c13e cdb8 5ebe ec5e ecbe
00000080: 365a 153e 86c6 98bc cf00 aebe 4300 0dbd
00000090: 6d11 e6be 70fd 2b3e 47c4 f23e e3cb 903e
000000a0: 71ef c93e 7aef e13e a78e 22be 45c1 c83e
000000b0: 91d8 5ebe c21c 8fbe a634 b0be a13a db3e
000000c0: 7c94 8f3d d3ca cdbe 79f6 533e 1a60 04bf
000000d0: 0dce d03e f47c 02bf eea1 98be 2df7 013f
000000e0: 1199 86be 5201 cc3e 80db 4b3e b367 773d
000000f0: a080 253e f107 a5be b67a e73d 8b1b cfbe
0.14619684 -0.034678083 -0.012597837 0.2735902 0.4263897 -0.21466696 -0.038180918 0.20381208
-0.17342348 0.18153492 0.453269 0.20155862 -0.36273947 -0.48501053 -0.18159847 -0.44921112
0.5326915 -0.38941312 -0.085387155 0.059407715 0.43010995 0.029569525 -0.14243232 -0.13685793
0.073779956 -0.26572552 -0.2907039 -0.120192535 -0.11279008 0.3772039 -0.21750183 -0.4616617
0.14585194 -0.01864935 -0.33984992 -0.034424078 -0.4493517 0.16795897 0.47415373 0.28280553
0.39440492 0.4412802 -0.1587473 0.39209953 -0.21762301 -0.27951628 -0.34415168 0.42818168
0.07010743 -0.40193805 0.2069949 -0.5170914 0.40782204 -0.50971913 -0.29811043 0.50767785
-0.26288655 0.39844757 0.19907951 0.06040163 0.16162348 -0.3223262 0.11302702 -0.404507

conv1.1.weight f4 [64]
00000000: e0d8 7d3f f914 803f c00c 7b3f abe9 7b3f
00000010: f852 7e3f 1cce 813f d902 7b3f fee8 7a3f
00000020: ff5b 7d3f 5e10 7d3f efba 7f3f 1e37 803f
00000030: 2573 7e3f d7d5 803f a0a2 803f 8762 7f3f
00000040: e964 803f 2576 7e3f 7294 803f 5332 803f
00000050: ff9c 7d3f 5f51 813f e11f 803f f4dc 7e3f
00000060: bc3c 803f 8198 7f3f 5cad 7c3f 1e66 7b3f
00000070: 6279 7f3f 3357 803f 3203 803f a7b4 803f
00000080: 8ea1 7d3f 99ad 803f 6a12 803f 95e0 7e3f
00000090: ecdf 7f3f 9b19 7b3f 96bc 7c3f f011 7f3f
000000a0: b5ce 7e3f cc71 823f c067 803f cf2d 7d3f
000000b0: d2af 803f d3b9 7d3f e38b 7e3f a35d 803f
000000c0: c630 803f 0807 7e3f db36 803f ad96 7e3f
000000d0: d1c5 7d3f fdac 823f 4c64 803f 40df 803f
000000e0: 72da 803f db66 803f 8047 813f b5fa 7e3f
000000f0: 0595 803f ac1e 833f b64d 803f bc0c 7b3f
0.9915905 1.00064 0.9806633 0.98403424 0.9934535 1.0141025 0.9805122 0.9801177
0.989685 0.988531 0.99894613 1.001682 0.99394447 1.0065259 1.0049629 0.99759716
1.0030795 0.99399024 1.0045302 1.0015358 0.9906768 1.0102957 1.0009729 0.995559
1.0018535 0.9984208 0.98702025 0.98202693 0.9979459 1.0026611 1.0000975 1.0055131
0.9907464 1.0052978 1.000562 0.99561435 0.9995105 0.98085946 0.9872526 0.99636745
0.9953416 1.0190978 1.0031662 0.98898023 1.0053656 0.9911167 0.994322 1.0028576
1.0014884 0.9922948 1.001674 0.99448663 0.9912997 1.0209042 1.0030608 1.006813
1.0066664 1.0031389 1.0099945 0.996013 1.0045477 1.0243735 1.0023715 0.98066306

conv1.1.bias f4 [64]
00000000: b770 04bc fb6e 0bbd e702 e8bc c937 a6bc
00000010: 77a7 2ebc 83ec beba 4e16 8dbc c589 c4bb
00000020: b491 34bc d598 7dbc 2680 babb 0a21 7cbc
00000030: 9fa3 2c3b 05db 49bd c6a5 f0bb 18ee eebb
00000040: bf57 14bc 4d77 88bc 92fc 49bc ebad 0bbc
00000050: 556e 87bc c2ff cebb af29 0dbb 83e6 2c3a
00000060: dea8 0cbc c4e0 2bbc e148 72bc ab14 83bc
00000070: fbb0 23bc ddc4 febb fd9b 7bbb 023b 453c
00000080: f2d3 0cbc 4155 73bc a429 2bbc dde7 95bb
00000090: 2eae 893a 9b02 88bc 77a4 9fbc 2a61 3dbc
000000a0: 9338 8b3b 1e17 26bc d4ea 83bc 5aa2 b3bc
000000b0: fcaf 92bc ef06 93bc 9ded 66bc 2c56 e2bb
000000c0: 36ff 33ba b2ca 5fbc 2f6a 57bb dd9c 38bc
000000d0: c133 95bc f405 bcbb db45 8538 bb0c 61bb
000000e0: 3f75 30b9 f050 aebc 2c1f 193c 1913 1b3a
000000f0: ec72 47bc 77b6 1dbd 7e06 a4bc 6a54 1abb
-0.008083514 -0.034041386 -0.028321696 -0.020290272 -0.010660044 -0.0014566336 -0.01722255 -0.0059978687
-0.011021066 -0.0154783325 -0.005691546 -0.0153887365 0.0026342643 -0.04928114 -0.0073439805 -0.0072915666
-0.009054123 -0.01665845 -0.012328284 -0.008525352 -0.016532103 -0.00631711 -0.0021539738 0.0006595628
-0.008585183 -0.0104906 -0.0147878835 -0.016001066 -0.009990926 -0.007774933 -0.0038392537 0.012037994
-0.008595454 -0.014851869 -0.01044694 -0.0045747594 0.001050418 -0.016602805 -0.019487603 -0.01155881
0.0042486875 -0.0101373475 -0.016103186 -0.021928001 -0.017906182 -0.017947642 -0.014094737 -0.006907245
-0.00068663375 -0.013659166 -0.0032869687 -0.011267868 -0.018213155 -0.0057380144 6.354946e-05 -0.0034339863
-0.00016828346 -0.021278828 0.009345811 0.00059156265 -0.012173396 -0.03850409 -0.020022627 -0.002354885

conv1.1.running_mean f4 [64]
00000000: 6443 3d43 0f4a 3f42 e565 90c2 22fa 72c1
00000010: 8939 1842 5b53 4443 c8e9 24c3 ea9e f042
00000020: 68e4 0742 9e7b 5242 378d 83c2 f466 03c0
00000030: 87ed cc42 7de3 c2c1 e8f6 d8c1 faec e1c1
00000040: 2fdf e7c2 5e51 55c2 dfab a7c2 7b7d 8ec1
00000050: d767 1cc0 c73d 6b42 37bd 0442 f824 1dc2
00000060: 678a 13c3 268e 5ac2 f108 c6c2 0657 f7c1
00000070: 3610 ea42 c8a1 b341 6eba af42 f949 9c42
00000080: a339 a2c2 93b3 dac1 3ec7 0642 74eb 0541
00000090: 37a9 fac1 f510 b042 6169 b4c1 6de1 ecc2
000000a0: 0180 8142 d2c6 5e43 d24a e4c2 b842 7642
000000b0: c133 8ac2 1cd5 a9c1 2507 a942 c5f1 aec1
000000c0: 827b 08c3 ee06 5c41 91ce cc41 b92c 1942
000000d0: c02b e9c1 7bd1 fec2 c1af a242 b845 96c2
000000e0: 9d74 d2c2 ae31 8bc2 3e20 db3f 2339 6741
000000f0: 684d 8642 ebdb 3643 4608 afc1 8e21 1343
189.26324 47.822323 -72.19901 -15.186068 38.056187 196.3256 -164.91321 120.31038
33.973053 52.62072 -65.77581 -2.0531588 102.46392 -24.361078 -27.12056 -28.240711
-115.935905 -53.32946 -83.835686 -17.81127 -2.443838 58.81033 33.18478 -39.286102
-147.54063 -54.638817 -99.01746 -30.917492 117.03166 22.453995 87.86412 78.14448
-81.11257 -27.337683 33.694572 8.369984 -31.332624 88.03312 -22.551455 -118.440285
64.75001 222.77664 -114.14613 61.565155 -69.10108 -21.229057 84.513954 -21.868052
-136.48245 13.751692 25.600863 38.293674 -29.146362 -127.40914 81.34327 -75.13617
-105.22776 -69.59703 1.7119215 14.451449 67.151184 182.85905 -21.87904 147.13107

conv1.1.running_var f4 [64]
00000000: 0418 d841 742f fe42 f6b8 a442 85fe 1243
00000010: b687 1a43 03d2 0842 e883 da41 c523 7b42
00000020: c54b f243 c5e4 8742 f30c 0343 a76a aa42
00000030: 6986 8f42 f1b6 fb42 8b7c d940 52dc 9b42
00000040: 51ee c142 a379 0142 ea0c dd42 74e0 8442
00000050: b284 2243 4213 3443 1b2d 8e42 7cc4 e442
00000060: 2fb0 c042 6028 5c42 49fe 0943 1fd8 a642
00000070: a83f 8243 6ca2 1a42 7bfc 1343 499f bb42
00000080: 25b5 ea42 5dae 4642 f52a e343 68e5 3543
00000090: 2765 8443 8eaa 3243 1ba9 4143 6968 0342
000000a0: 87e4 f542 9aff fc41 6f59 0141 3ad7 e842
000000b0: 5048 b442 59d3 2441 64ac 7f43 30a2 a843
000000c0: 7f07 a042 b706 c142 3e5d d941 3134 8f43
000000d0: 0f29 2640 517b 8941 e10a 7a43 9274 f843
000000e0: 1dda 4142 17de d441 49d2 cc42 7dac d142
000000f0: cb93 8b42 3193 0f42 0f3a cb41 7dac 9f42
27.011726 127.09268 82.36125 146.99422 154.53012 34.20509 27.314407 62.78493
484.59195 67.946815 131.05058 85.208305 71.76252 125.85731 6.796453 77.93031
96.96546 32.368786 110.52522 66.438385 162.51834 180.07523 71.0881 114.38376
96.34411 55.03943 137.9933 83.42211 260.4973 38.658615 147.98625 93.811104
117.3538 49.670277 454.3356 181.89612 264.79025 178.66623 193.66057 32.851963
122.94634 31.624805 8.084334 116.420364 90.141235 10.301599 255.6734 337.2671
80.01464 96.513115 27.170528 286.40775 2.596256 17.185213 250.0425 496.9107
48.463 26.608442 102.41071 104.83689 69.78866 35.89374 25.403349 79.83689

conv2.0.weight f4 [128, 64, 3]
00000000: 3778 dbbd 82ef 983c 6554 cdbb ae43 e03b
00000010: 1abd a93c 155d 963c 1418 913d f6a2 8b3a
00000020: b312 77bc 0311 d7bb f50e 5b3d b3e7 25bc
00000030: 72fd e9bb c140 08bd a976 bb3c df9a 8fbd
00000040: e69c 7abd 9d8b 7a3d 1166 6c3d 0d02 96bc
00000050: 332f 493c 46a2 633d 9968 3f3d e5f4 9cbc
00000060: 6040 4e3d 17c3 ee3c f660 073c a635 a8bd
00000070: 2185 063d 3843 c4ba 659a d8bc 4bc4 86bc
00000080: e046 84bd a40c a8bd 87ef 00ba 4e98 12bd
00000090: f65e 60bd 1c74 79bb d6af 773c d45a 433d
000000a0: 2eb6 87bd 4c25 563c 2a37 bfbc 845d 113d
000000b0: d7b4 66bc 6467 723c 16dc c03c ae54 223d
000000c0: a07c 753d 43f9 95bd a515 a43d 91f5 96bc
000000d0: 195f 6bbd 969a 583d 48b9 c23b 939c a83d
000000e0: bd8b 80bd d35a 113d b742 263b 506b 753c
000000f0: 50a4 44bd 321d 24bd 1d63 ea3c ddd8 403d
00000100: c99b 0bbd c5c3 7dbc ebd7 893d 5b74 64bd
00000110: 410a 6c3a 8314 47bd 515a 553d 78e9 483c
00000120: 71d4 103c f82d 94bc b3ed 643d 8a41 033c
00000130: 0d91 ef3c cb20 b73c 5bd8 1dbc 1ffb 8fbd
00000140: 3523 343d 4577 873d 4f10 7b3c b874 82bc
00000150: bfc4 b63c 2aaa 413d 7851 25bc 478e 53bd
00000160: 88f5 9cbb 4844 683d 57c5 3dbd c4d2 37bc
00000170: 9fa7 873d bc7d 793d 9e69 c6bc 5d25 2d3c
00000180: 0581 efbc 762c 7cbd 8e04 1a3c 1330 b5bc
00000190: a2ad a3bc 177f 35bd e38c 503d 6d32 bbbb
000001a0: e254 b23c cfed 15bc 6e47 b33c 4f80 673d
000001b0: 6a11 753c c807 29bb 1dae 5abd 5926 3a3d
000001c0: be7b 95bd e39e 833d b283 f63c 6287 32bd
000001d0: 5a8f 76bd d0e5 6b3c ef9d 66bd 5d6f 3b3d
000001e0: a57e c03c 300c 16bd ab1f 173c aac6 1e3d
000001f0: bafa 55bd 1bee 16bd 8141 3c3c a1e3 543b
00000200: be17 4bbd aa55 8a3c 11cf c4ba 622c 2cbd
00000210: 4797 c93c ba44 eabb 18f4 493d 2bf3 90bd
00000220: a1a3 883d 19f6 553d 7051 593d 1081 69bd
00000230: 3f8a 033d 96e5 3fbd fc7a b6bc df9b 84bd
00000240: 6d82 4cbd e2a4 3d3a a70b 8d3c f10b 543d
00000250: 0c12 3c3d 233b 033c 360a 403c 126a 393c
00000260: 62fc 70bd 4269 39bd 452a fabb c47b 863d
00000270: 4558 bc3c e61f 8cbd 9a22 e23c 2839 a53c
00000280: 02b8 3dbd 78f0 363d c495 62bd 6484 63bd
00000290: 49a3 393c c6cd 013d 1b8e 0fbd 7cfd bcba
000002a0: 44ea 1f3d d2f2 4ebb 1ce9 36bd e65a 71bd
000002b0: 6d4b 343d 41cf b83c 611b 8cbd aacb 473d
000002c0: 35aa d93c 5a2c c3bc f32d e4bc 5b85 85bc
000002d0: e385 d4bc 9c32 92bb c39c 1ebd 633b b0bc
000002e0: a886 453d 3012 2d37 785c 843d 0b49 79bd
000002f0: 19e7 19bd e8ca 5bb9 d9e2 9b3d ea28 2c3d
00000300: 6f19 c43c 20e9 8b3b e7fe 5dbd 985b 823c
00000310: d0ed d03c 2af3 8f3d c667 6d3d 2ff1 b13c
00000320: fa5a 6c3d a79c b3bc c6a0 ebbc cd7f 81bd
00000330: fe50 51bd 9447 dfbc 1f6d 00bd 0fc8 233d
00000340: dac7 6ebd 5dae 773d 499b 28bd 4495 4f3d
00000350: 36c6 25bc 1e89 a83c 3c1b 823d 8d2a cfbc
00000360: cc74 913d f36c 3d3d 3da3 683d 3f68 ea3b
00000370: b3a0 b6bc 8a2b 763d 9180 5a3d 6bd8 b73c
00000380: 9869 193c 9556 99bc ba01 633d bfeb abbc
00000390: f10d 1abd 3bd4 303d b646 9abb 54f5 7d3b
000003a0: bf9f 7f3d 7554 393b 7a38 433d 6e02 a1bd
000003b0: 5396 5b3c daa5 073d 74ae adbd 1db8 e83c
000003c0: b5c2 763d 03ac 4d3d 46ae 42bd c18a 213d
000003d0: 9787 9fbc c3d1 3fbd f714 8bbd a7ca 523d
000003e0: 7634 8e3c e6c4 0fbd ee7a 7ebc 1f01 323d
000003f0: c636 3abc ff86 88bd 0cb6 0abd f9a1 32bc
-0.107162885 0.018668894 -0.006266164 0.0068440055 0.020720053 0.018354932 0.07084671 0.0010653425
-0.015080142 -0.0065633073 0.05348106 -0.010126042 -0.0071408087 -0.03326488 0.02288373 -0.07011961
-0.061184786 0.0611683 0.057714526 -0.018311525 0.01227932 0.055574678 0.04673061 -0.019159744
0.05035436 0.02914576 0.008262863 -0.082133576 0.032841805 -0.0014973646 -0.026440809 -0.016451022
-0.06458831 -0.08205536 -0.0004918505 -0.03578978 -0.05477806 -0.0038063591 0.015117606 0.047694042
-0.06626545 0.013070416 -0.023341734 0.035489574 -0.0140812015 0.014795158 0.023542445 0.039631538
0.059933305 -0.073229335 0.08011941 -0.018427642 -0.05746374 0.0528818 0.0059424974 0.08232989
-0.06276653 0.035487007 0.0025369355 0.014979199 -0.048008263 -0.040066905 0.028611714 0.047081817
-0.034084115 -0.01548857 0.06730636 -0.055775028 0.00090042135 -0.048603546 0.052088086 0.012262695
0.0088397125 -0.018088326 0.05589075 0.008011231 0.02924397 0.022354504 -0.009634103 -0.070303194
0.04397889 0.06614546 0.0153237125 -0.015924796 0.022310613 0.04728142 -0.010090224 -0.051649358
-0.004790012 0.056705743 -0.046330776 -0.011219684 0.06623768 0.060910925 -0.024220284 0.01056799
-0.029236326 -0.06156584 0.0094005 -0.02211765 -0.019980256 -0.044310655 0.05091561 -0.0057127983
0.02176899 -0.009150936 0.021884646 0.05651885 0.014957765 -0.0025791992 -0.053388704 0.045446727
-0.072989926 0.064267896 0.030092094 -0.043586142 -0.060195304 0.014398053 -0.05630296 0.0457605
0.023497889 -0.036632717 0.009223859 0.03876368 -0.052241065 -0.03684817 0.011490227 0.003248431
-0.04958319 0.016886551 -0.0015015324 -0.042034514 0.024608267 -0.007149306 0.04930505 -0.070776306
0.06671835 0.05223665 0.05305618 -0.05700785 0.032114264 -0.04684981 -0.02227544 -0.064750426
-0.04992907 0.0007234347 0.01721747 0.0517692 0.04591565 0.008009705 0.0117211845 0.011316793
-0.05883444 -0.045266397 -0.0076344335 0.06566575 0.022991309 -0.06842022 0.02760439 0.020168856
-0.04631806 0.044662923 -0.05531861 -0.05554618 0.011330434 0.03169038 -0.03504763 -0.0014418806
0.039041772 -0.0031577838 -0.044655904 -0.058924578 0.044017244 0.022559764 -0.068411596 0.048778214
0.026570419 -0.02382486 -0.027853942 -0.01629894 -0.025942748 -0.0044615995 -0.03872372 -0.021512693
0.04822412 1.0315838e-05 0.064629495 -0.060860675 -0.037573908 -0.00020961056 0.07611627 0.042031206
0.023937909 0.004269734 -0.054198172 0.015912816 0.025504023 0.07028802 0.057960294 0.02172145
0.05770395 -0.021925284 -0.028763186 -0.06323204 -0.05110263 -0.02725581 -0.031354066 0.039985713
-0.058296062 0.06046902 -0.041163716 0.05067946 -0.010118058 0.020573195 0.06352851 -0.025288844
0.07102355 0.04624648 0.0567963 0.0071535404 -0.022293424 0.060100116 0.053345267 0.022442063
0.009363554 -0.018718043 0.05542157 -0.020986436 -0.03761095 0.04317115 -0.0047081364 0.0038750963
0.062408205 0.00282791 0.047661282 -0.078617916 0.013402539 0.033117153 -0.0848054 0.028408105
0.06024428 0.05021287 -0.04752948 0.039438967 -0.019473834 -0.046830904 -0.06791108 0.051462796
0.017359 -0.035099886 -0.015532238 0.0434581 -0.011365598 -0.066663735 -0.03386502 -0.010902875

conv2.0.bias f4 [128]
00000000: c032 be3b 699d d3bc 02b9 da3b 0ad3 ec3c
00000010: b1b7 2abd 7a28 a6bd d189 2ebc 1fa1 f83c
00000020: 8f16 b0ba 08c0 98bd b5a7 fcbc 2c5c 2e3d
00000030: adf0 b93d 24ed 96bd 0a24 893d 401a 8bbc
00000040: c1a4 a0bc 61ed 123d f708 b23b b33e f33c
00000050: 4bcc 88bd a0c7 12bd 4e7b 003d a762 00bd
00000060: 544b e4bb 4f94 55bd 737c 3cbc 4751 69bc
00000070: 53ef 08bd 33cf 83ba a1cb fabc 9419 07bb
00000080: 1d67 43bd 14a3 96bd 86e3 08ba 4012 b5bc
00000090: 3258 10bc 9c05 743d 06a5 2c3d 58f9 573d
000000a0: b7c1 8b3d f072 e8ba 150a 98bd dddf 81bd
000000b0: 94d3 613d e26c 85bd 2317 493b 31e1 9abc
000000c0: acba e0bc e61d 90bb c302 803c e687 e23a
000000d0: 350a 213d aeb4 01bd e30c 91ba 8c79 6ebb
000000e0: 68d5 a33d 16fc 6f3d 70d2 4dbc b7d0 d6b9
000000f0: 1977 08bd 54e6 50bc e86c 3fbd 1148 b23d
00000100: 779f fb3c 2770 30bd 838f 4bbd b928 4c3d
00000110: 4d04 6dbd 8150 4b3d afb3 b8bd 9c5b 8fbd
00000120: a513 7d3d 7b68 8e3d 38aa 1f3d f746 8bbc
00000130: 0f55 82bd 237e 1d3d 34b7 1d3d ffd0 6d3c
00000140: 0606 f63c 08e5 16bd 3fb0 4cbb 4e45 6fbd
00000150: 363e 643d 98d5 5bbc 94eb df3c 3bdf 053d
00000160: 4338 9aba e67d 53bd 3fe9 943d 5daa 6b3c
00000170: d720 fbbc 0001 2c3d 4309 403d db65 41bb
00000180: d5ce 9c3c 21ad 493d 7b8e 5bbd f8b6 12bd
00000190: de99 84bd 1332 dc3c 0ba5 7abd ded2 793d
000001a0: 6524 273d e74b 09bd 1ee8 323d f71b 24bd
000001b0: 5678 833c e26a 43bd 165c 6bbd e411 813c
000001c0: 0191 8e3d 1aa2 b1bb 1848 dbbc a48c 97bc
000001d0: d193 e93c e3a5 63bd 22d3 4c3d 66f9 81bd
000001e0: 6c8d a5bc fa2b 0abd a852 663d e445 7cbd
000001f0: e49a dd3c e057 023c b07e 02bb 8807 2c3d
0.0058043897 -0.025831895 0.0066748867 0.028909225 -0.041679088 -0.08113189 -0.010652975 0.030350266
-0.0013434457 -0.07458502 -0.030841688 0.04256837 0.090791084 -0.0736945 0.06696327 -0.01698029
-0.01960981 0.035870913 0.0054331976 0.029692983 -0.06679591 -0.03583491 0.031367593 -0.031344082
-0.0069669876 -0.05214339 -0.01150428 -0.014240569 -0.033431362 -0.0010056257 -0.030614676 -0.002061461
-0.04770576 -0.073553234 -0.0005221892 -0.022103429 -0.00881009 0.059575662 0.042149566 0.052728027
0.068240575 -0.0017734449 -0.07423798 -0.06341527 0.055133417 -0.065149084 0.0030683957 -0.018906208
-0.027432762 -0.0043980954 0.015626317 0.0017282933 0.039316375 -0.03166645 -0.0011066463 -0.0036388366
0.079996884 0.058590017 -0.012562379 -0.00040972765 -0.033316705 -0.012750227 -0.04673472 0.08705152
0.030715687 -0.043075707 -0.04969741 0.049843524 -0.05786543 0.04963732 -0.09018647 -0.06999895
0.061786313 0.06953522 0.038980693 -0.017001612 -0.0636388 0.03845037 0.038504794 0.014515161
0.03003217 -0.036839515 -0.003123298 -0.058415703 0.05572339 -0.013417624 0.027334012 0.032683592
-0.0011766035 -0.051633738 0.07271051 0.0143838795 -0.030655308 0.04199314 0.046883833 -0.0029510173
0.019141594 0.049237374 -0.053602677 -0.035819024 -0.0647466 0.026879346 -0.061192553 0.060992114
0.040806193 -0.03351965 0.043678395 -0.04006573 0.016048592 -0.047709353 -0.057460867 0.015755601
0.06961251 -0.0054209353 -0.026767775 -0.01849968 0.028512867 -0.055578124 0.05000604 -0.06346397
-0.020209037 -0.033733346 0.05623117 -0.06159009 0.027051397 0.007955521 -0.0019911937 0.04199937

conv2.1.weight f4 [128]
00000000: bbea 7d3f f9fb 793f 4050 7d3f 7cd9 803f
00000010: d40a 793f 4bb1 783f 681a 7b3f 2f5e 7b3f
00000020: 6017 803f ce41 7f3f daf8 7d3f ba13 813f
00000030: da01 833f acff 7a3f d95d 7f3f 862d 793f
00000040: a9b3 753f 7521 823f 9a54 813f 4881 7c3f
00000050: b3e5 7a3f 618d 7f3f 4fdb 833f e9ec 793f
00000060: 6e11 7f3f 72ba 7b3f 9b97 7c3f f7b3 7f3f
00000070: 0e1b 7b3f 025c 7a3f 93e8 803f b796 8b3f
00000080: 7b4c 7b3f 6c56 8e3f 0dc3 793f a345 813f
00000090: 6513 783f 5ae8 753f 4b11 803f 86ce 823f
000000a0: fec4 823f fd72 7d3f 8f90 7f3f 9878 7e3f
000000b0: 214b 803f efb0 7b3f 1594 863f ea54 783f
000000c0: 4ab5 7c3f 448e 7b3f 6953 803f 0f34 7c3f
000000d0: a7ec 7e3f b8f5 763f 174c 743f 5db8 783f
000000e0: 7b80 7d3f ad85 7c3f 7061 7c3f 671c 7a3f
000000f0: 3e86 7e3f 19d3 7a3f 257f 893f 9c49 813f
00000100: 8972 7c3f 0a78 803f a404 7d3f f7c6 793f
00000110: 5c8d 7e3f c186 7a3f 6918 7d3f 91e4 823f
00000120: 7fa3 7c3f 543c 803f 9eac 783f 3ce5 803f
00000130: 8210 803f 6e21 773f 4c0f 7d3f f3d6 7f3f
00000140: e69a 833f 24ce 773f 1054 7d3f 70e2 7b3f
00000150: c753 7c3f e994 793f 760d 7b3f 75f2 7e3f
00000160: 3c85 7e3f 2494 803f 1d5a 7e3f cc9f 7f3f
00000170: 5b76 7f3f a544 7d3f 001b 7f3f 98bc 7b3f
00000180: 5594 7b3f 0935 813f b418 7c3f b86b 793f
00000190: 1569 7b3f 158f 7d3f e573 913f 98af 7f3f
000001a0: 206c 803f dfc5 7b3f b58d 813f 5c61 7c3f
000001b0: d74c 7d3f b6e7 7a3f 3689 7a3f c7aa 763f
000001c0: 7f1a 7f3f cd4e 7a3f c568 7c3f 0f62 7f3f
000001d0: 18f4 8d3f d9c6 773f 5c9e 7f3f aa9e 7f3f
000001e0: cb4b 7d3f 0936 7b3f 6517 793f 6807 7b3f
000001f0: e8e4 793f 4f21 7b3f 5876 803f 3912 823f
0.99186295 0.97650105 0.98950577 1.0066371 0.9728215 0.9714553 0.9808717 0.9819059
1.0007133 0.99709785 0.9920784 1.0084145 1.023494 0.98046374 0.99752575 0.9733509
0.95977265 1.016646 1.0103943 0.9863477 0.98006743 0.998251 1.0301303 0.9762712
0.9963597 0.9833137 0.9866883 0.9988398 0.9808816 0.9779664 1.0070976 1.090537
0.98163575 1.1120124 0.9756325 1.0099376 0.96904594 0.96057665 1.0005277 1.0219276
1.0216367 0.99003583 0.99829954 0.9940276 1.0022928 0.98316854 1.0513941 0.9700457
0.98714125 0.98263955 1.0025455 0.98516935 0.9957985 0.9646869 0.95428604 0.97156316
0.9902417 0.98641473 0.9858618 0.9769959 0.9942359 0.9797836 1.0741926 1.0100589
0.98612267 1.0036633 0.98835206 0.9756922 0.9943445 0.9786187 0.9886537 1.0226003
0.98686975 1.0018411 0.9713839 1.0069957 1.0005038 0.96535385 0.98851466 0.9993736
1.0281646 0.9679892 0.98956394 0.9839239 0.98565334 0.97492844 0.98067415 0.9958871
0.9942205 1.0045209 0.9935625 0.99853206 0.9978997 0.9893287 0.99650574 0.98334646
0.9827321 1.009431 0.98475194 0.9742999 0.9820722 0.9904645 1.1363493 0.9987731
1.0032997 0.983488 1.012137 0.9858606 0.98945373 0.9800981 0.9786562 0.96354336
0.99649805 0.9777649 0.98597366 0.99759 1.1090117 0.9678779 0.9985101 0.9985148
0.98943776 0.98129326 0.9730132 0.98058176 0.9761491 0.980977 1.0036116 1.0161811

conv2.1.bias f4 [128]
00000000: 1711 a8bc 199c c2bc 8f0f a7bb 1599 3d3b
00000010: f35b b6bc 4eff 04bd b059 8cbc 2187 bebc
00000020: 0a7c 5c3b 78be efbb 0fa8 97bc 2062 773c
00000030: 7fda b1bb 020c e0bc 3945 d83b 0dc1 aabc
00000040: b588 13bd ff99 8a3c a025 1abb e9c7 81bc
00000050: 02e7 6dbc c175 423a a583 9e3b 927f 0ebc
00000060: 2c29 d6bc 5c2e cebc 4437 bebc a9fe 80bc
00000070: 6d4e 34bc 2a07 85bc 31a7 f43a 43b3 d73c
00000080: 9bab 8dbc b539 853d d42b 9ebc 2e77 4b3a
00000090: 3a0f 1dbd 334b b8bc 6972 c6bb b96f 3bbc
000000a0: 54a5 3d3c a6ea 77bc 5ecc ff3b 9dbc 263b
000000b0: 0f0c a5bb c287 d2bc 6355 213d ceac bebc
000000c0: 6cd9 d4bc 693c e2bc 50fc 0c3c 07f4 5cbc
000000d0: 6b01 083c 9102 87bc 3916 28bd c7d3 6dbc
000000e0: 2123 dcbc 4530 a3bc 2293 a4bb fd3d c3bc
000000f0: ea5d 81bc b3f2 9fbc 081d 6e3a fc79 a0bb
00000100: 8a97 98bc b8f8 0a3c edaf 6639 2298 fdbc
00000110: 9e56 08bc 4f11 d6bc 05b9 61bb 96a7 163c
00000120: 309c ccbb 87a0 0fbb d49e ecbc 5927 6abc
00000130: 0661 d13a c6d3 14bd acc7 94bc 2c9c 92bc
00000140: 0da4 62bc bd07 0dbd 2584 28bc c960 2ebc
00000150: f571 cdbc cbdd babc 0961 b4bc 2d73 ac39
00000160: 271a 44bc ec36 37bc e522 65bc 136e 45bc
00000170: 371d c9bb 9abb 32bc 11dc f9bb 525a 16bc
00000180: e534 93bc 4c93 1ebc 3d73 96bc adfe 56bc
00000190: 9c67 89bc c813 00bc dcf1 c63d 5601 abbc
000001a0: a496 abbb 3cb9 b7bc ee56 223c 291e 45bc
000001b0: acee b9bb 405a bbbc 384a bfbc 563a dbbc
000001c0: f35d b0bb 95d4 bebc 2352 b9bc de1a f7ba
000001d0: 1db3 bd3d 7f7d ddbc 460e f7ba d784 0bbc
000001e0: e785 0ebd dfff 95bc e7e5 02bd dca8 8bbc
000001f0: a063 c9bc e5e8 9cbb 40ad 8635 d09f c33b
-0.020515962 -0.023756074 -0.0050982903 0.0028930355 -0.022260642 -0.03247004 -0.01713261 -0.023257794
0.003364327 -0.007316407 -0.018512754 0.015099078 -0.005427658 -0.027349476 0.006600049 -0.020844007
-0.036019046 0.016919134 -0.0023520961 -0.015842395 -0.014520409 0.00074180594 0.0048374706 -0.008697407
-0.02614268 -0.02516859 -0.023219712 -0.015746431 -0.011005026 -0.016238768 0.001866555 0.026330596
-0.017293742 0.06505147 -0.019308008 0.00077615946 -0.0383446 -0.022496795 -0.006056119 -0.011440211
0.011575062 -0.015131628 0.007806345 0.0025442012 -0.005036838 -0.0256995 0.03938807 -0.02327576
-0.025982581 -0.027616696 0.008605078 -0.013485915 0.008301119 -0.016480716 -0.04103682 -0.014515824
-0.02687222 -0.019920478 -0.0050224224 -0.02383327 -0.015791852 -0.019524908 0.00090833055 -0.004897354
-0.018626947 0.008482151 0.00022000047 -0.030956332 -0.008321432 -0.0261313 -0.0034442556 0.009195229
-0.006244205 -0.002191575 -0.028884329 -0.014291608 0.001597435 -0.036334775 -0.018161617 -0.017896734
-0.013833058 -0.034431208 -0.010285412 -0.010643193 -0.025078753 -0.022810837 -0.022018926 0.0003289221
-0.011969126 -0.011182528 -0.01398537 -0.0120501695 -0.006137516 -0.0109089855 -0.007625111 -0.0091768075
-0.017969558 -0.009678673 -0.018365497 -0.013122243 -0.016773038 -0.007817216 0.097141 -0.02087466
-0.0052364636 -0.022427194 0.009908421 -0.0120311165 -0.005674204 -0.022870183 -0.02335082 -0.026761215
-0.0053822934 -0.023294726 -0.022622174 -0.0018852612 0.09262679 -0.02703738 -0.0018848858 -0.008515558
-0.034795668 -0.018310485 -0.031957533 -0.017048292 -0.024583638 -0.0047885054 1.00342e-06 0.005969979

conv2.1.running_mean f4 [128]
00000000: 0132 6ebc 980b 02bd fa4d 4ebd 4653 033f
00000010: f41f 08bf ea7c 85be 55e3 0cbe 3d7e 553e
00000020: 7b06 9abe 2ffd 62be b387 cb3e 26dd 81be
00000030: 48a1 e53e 3520 9ebe 7678 a1be 2241 17bf
00000040: acf9 2bbe 23c4 d63d 594c 373e a9e7 9cbe
00000050: fc2e 20bf a259 333e 8fca a13d ea70 eabe
00000060: 5381 473f 5ad1 563c fb50 e7bc e4cd 9b3e
00000070: 9951 bebd a163 473c 7c2a d83d a519 04bf
00000080: 565f ee3d 5934 823f 100d e03e aced 023e
00000090: 391b 6abe c77e bcbd 873f 9fbc 27c0 6d3e
000000a0: a1ad 6c3f 5024 33be 3e46 fabd 2710 f2be
000000b0: e86b e6bd 1ffa 49be 448f 04be 5c5c babe
000000c0: ffa0 523d 0526 1e3e 7f59 2fbe d09d 38be
000000d0: f52e b7bd 925d 1b3e fd35 10bf 8425 453d
000000e0: 97a4 b5bd b099 91be eb3b fabe 2b7c 24be
000000f0: d6a7 25bd 84b0 523e ab38 303e 76ec e53d
00000100: c859 d0bd 1219 743e 120f 9dbd 76d5 ccbe
00000110: 8770 16be 9a48 01be 59d2 bcbe 6df9 c8be
00000120: bd85 ab3d 1e87 183e 1ea1 03bd 62ab bdbe
00000130: 469b 7f3e 08ac abbe ea50 8c3e 3569 9f3e
00000140: 54d4 b73e 18c7 97be e60f 953d bd93 1d3e
00000150: 9b1a 0b3e df3e a13d ec1c 9f3d a400 f6bd
00000160: e4e4 d7be 613d 5dbe 98d0 8d3c 1da3 79be
00000170: ed60 a5bd 34b5 a2be f095 67bc f28d 323e
00000180: 5486 c3be e08c 903d 1912 783d c6ae 6cbd
00000190: 8261 d23d 9d77 bd3e 456b 3b3f 4db5 053f
000001a0: 6deb 503e fdd0 34bd 7e6f 9cba 6220 0a3e
000001b0: 82a4 a4be 3030 a1bd dfec 3bbf fbca 09bf
000001c0: 3e8f 203f 6fa3 8e3e a0b1 3e3d 1fdc b0be
000001d0: 8897 173f 8250 e9be dbad ca3e 01fe f43e
000001e0: 59ea 3e3e af1b ba3c 6f88 ccbe 30cf b2be
000001f0: bed2 5a3e 6a98 cbbe 8b95 ef3e f1be 943e
-0.014538289 -0.031749338 -0.050367333 0.5129894 -0.53173757 -0.26071864 -0.13758595 0.20848937
-0.3008307 -0.22166894 0.39751968 -0.25364035 0.4484961 -0.30883947 -0.31537217 -0.5908376
-0.16794461 0.10486629 0.17900218 -0.30645493 -0.6257169 0.17514661 0.07899963 -0.45789272
0.7793171 0.013111437 -0.028236857 0.3043052 -0.09292907 0.0121697495 0.10554978 -0.5160163
0.11639278 1.0172225 0.43759966 0.12785977 -0.22861947 -0.09203868 -0.019439472 0.23217832
0.92452437 -0.17494321 -0.12220429 -0.47277948 -0.1125105 -0.1972432 -0.12945276 -0.3639859
0.05142307 0.15444191 -0.17123984 -0.1802895 -0.08944503 0.15172413 -0.5633238 0.04813148
-0.08869284 -0.28437567 -0.4887384 -0.16062991 -0.040443264 0.20575148 0.17209117 0.11226742
-0.101733744 0.23837689 -0.0766889 -0.40006608 -0.14691363 -0.12625352 -0.36879233 -0.39252797
0.08375118 0.14895293 -0.032136075 -0.37044817 0.24961576 -0.33529687 0.27405483 0.31134954
0.3590418 -0.29644084 0.07278423 0.15388389 0.13584368 0.0787332 0.07769188 -0.12011841
-0.42166817 -0.21605445 0.01731138 -0.24378629 -0.08075128 -0.31778872 -0.014134869 0.1743696
-0.38188422 0.0705812 0.060564134 -0.057783864 0.102725044 0.3700532 0.73210555 0.5222977
0.20402308 -0.04414462 -0.0011935083 0.13488916 -0.3215676 -0.07870519 -0.7340831 -0.5382535
0.6271857 0.27859065 0.046556115 -0.3454294 0.59215593 -0.45569235 0.39585766 0.4785004
0.18644084 0.022718279 -0.3994784 -0.34923697 0.21369454 -0.3976472 0.4679378 0.29051927

conv2.1.running_var f4 [128]
00000000: 0516 873d aa96 b93e 375b d83e 77b1 ae3e
00000010: fa4b c53e 7287 123f f281 be3e 9b8a 9d3e
00000020: d4fc 6f3e 666b 5b3e 5dd0 083f ce86 0b3e
00000030: 52d2 8b3d 5293 b43e 82b6 e73e 8259 bd3f
00000040: 58ac 853e 5f83 a73d 8480 3b3e 8330 e43d
00000050: c17d 4a3f dde3 823d 2c81 293d 130c 0c3f
00000060: e51e 753e 8a6a 483e ed51 0f3e 3ddb 283e
00000070: 4960 0c3f 0d96 3f3f 56ff cd3d 157b 203d
00000080: 1f75 cb3e fa2b c73d 9e1b 1d3f 4f61 ab3e
00000090: b758 613e 1cd1 053f 281d 0b3e 3fba 723d
000000a0: ae2a 2f3d 64ee 0f3e 4195 e63d 90f8 7a3e
000000b0: 1fc4 b33e b155 c93e 4675 293d eef7 1b3f
000000c0: 8f8d 723e 4e94 193e 4e82 cc3e aefe 1d3e
000000d0: 1253 293e c71b 853f 9d4c 903f 8d18 d63e
000000e0: 6fcd 383e 96fd b63d ed2e bd3e e39c 233f
000000f0: 6976 4d3e 0770 823e 0929 333d fcae 383e
00000100: 4830 ca3e cf54 073e 14f3 c83d 9333 053f
00000110: 7995 803e 0a50 2c3e f16f 813e d836 e63d
00000120: d509 df3d 07e6 803d f70b c43e beb0 e93d
00000130: 7347 993d 06cb bb3e 880c 173f d92d e43e
00000140: 4222 293d cb05 513e 73c8 993e 4ee8 c43d
00000150: 1abe fe3e 58de 8b3f b624 7a3e 7e25 133e
00000160: 41d9 f73e bf15 643d 90a9 923e 2787 bc3e
00000170: 6722 783e c51a e93d 7ae9 043e afd1 e53e
00000180: 4fe2 293f c5b1 8a3d 4de6 073f 77df e63e
00000190: cdd8 2d3f 3d87 343f eb6f b43c 629f dd3d
000001a0: e14b 8f3e 4f5b db3d f226 553e e38f 5e3f
000001b0: 967f 943e 753c 673e 96de a03e 0107 f23e
000001c0: 3575 0e3d 56c6 e13e 483a c03e 0d98 0e3e
000001d0: 51db a53d 533e c33e 841e 3c3e 77c3 713e
000001e0: 0add 703d 4334 d73e d877 a43e c0ad aa3e
000001f0: 38ce 913e 41e3 1b3f 0808 e63e f20d 723d
0.06595997 0.3624776 0.4225709 0.3411977 0.38534528 0.57237923 0.37208515 0.3076981
0.2343629 0.21427688 0.5344294 0.13625643 0.06827225 0.35268646 0.4525643 1.4792941
0.2610805 0.08179354 0.18310744 0.111420654 0.79098135 0.06391118 0.041382954 0.54705924
0.23937567 0.19571891 0.13996096 0.16489883 0.5483442 0.74838334 0.10058467 0.03917988
0.39737794 0.09725185 0.61370265 0.33472678 0.22006498 0.522722 0.13585341 0.05925965
0.042765312 0.14055783 0.11258937 0.24508882 0.35110566 0.3932319 0.041371606 0.60925186
0.23686813 0.1499798 0.39943165 0.15429184 0.16535595 1.0399102 1.127338 0.41815606
0.18047117 0.089350864 0.36949864 0.63911265 0.20064701 0.25476095 0.043740306 0.18035501
0.3948996 0.13215946 0.098119885 0.5203182 0.2511404 0.16827407 0.25280717 0.11240929
0.10890547 0.06293874 0.38290378 0.11410664 0.07484331 0.36678332 0.59003496 0.4456623
0.041292436 0.20412366 0.30035743 0.09614621 0.4975441 1.0927229 0.24428067 0.14369771
0.4840794 0.0556848 0.2864499 0.36821863 0.24231873 0.11382059 0.12979689 0.44886538
0.66360945 0.06772188 0.53085786 0.45092365 0.67908937 0.7051886 0.022026023 0.108214155
0.2798758 0.10710775 0.20815638 0.86938304 0.2900359 0.22581656 0.3141982 0.4727097
0.034779746 0.4409663 0.37544465 0.1392519 0.08098472 0.38133487 0.18371016 0.2360972
0.05880455 0.4203206 0.32122684 0.33335686 0.28477645 0.60893637 0.44928002 0.05909533

conv3.0.weight f4 [512, 128, 3]
00000000: 7034 0fbd 879d 023d 938b 3e3b b2ae 40bd
00000010: b9b9 9cbc 31d7 10bd 2964 393d 9aed d5bb
00000020: 5400 43bd 5bb5 ea3c 41ef 31bc 7a72 d6bc
00000030: ce08 b43c 58a0 abbc 7c46 60bb 8bc7 263d
00000040: 5dff 7e3b e515 01bd f093 523d 5f58 eabc
00000050: 9acb 4b3c a35f 003d c768 0dbd 4c5c 043d
00000060: 8895 8f3c e14e e3bc 445a b43b 033d f73c
00000070: e23a f33b 3f82 ccbc 919f df3c 771b 0a3b
00000080: 2295 283c 54e4 08ba 9a1e 5abb 17ee dfbb
00000090: f3c9 1abc b31a 0cbc 6f83 0dbd 4290 e9bc
000000a0: f365 a13b 2015 bbbc 6fab 823d 0b55 efbc
000000b0: 192a 77bb de32 34bc 4fd7 9b3c edba 8a3d
000000c0: 8eff 1f3d f663 233d 8cff c5bb 65e8 18bd
000000d0: 2a8c e2bc e7e3 ecbc 9f6f 263b deae 1b3c
000000e0: 3e87 f5bb 0933 643d ffec 7dba c07c fc3c
000000f0: 30ee 193c 7a82 103d 338c d43c 770e 57bd
00000100: 6dc5 af3c 6508 113d 26a6 4d3d c21f 78bd
00000110: 81be 443c 2711 3cbd 2f63 653d c12a aabc
00000120: 4c7c ec3c 66a5 443c 598a 24bd 8419 ce3c
00000130: 0471 48bd adf5 3ebc fc46 95bc 2b57 5bbd
00000140: 086c 5ebd 7038 c13c c173 1ebd 88fb 4d3c
00000150: 92ce b538 ea45 3fbc d767 3dbc d329 d33c
00000160: 4d0c 38bd cda1 9dbc 457f 0c3d 2732 3d3d
00000170: 63ab 87bd 8525 e53a 4549 3b3c 96d2 01bd
00000180: ce60 e43c 6d84 f5bc 653b 163d e673 813c
00000190: a0e1 033c c1d1 ad3c f0fa c9bc d1d2 003c
000001a0: 7956 6fbd 0d04 003c cf92 10bc cf82 cfbc
000001b0: 3f2f 16bd 5f31 00bd 6a1e 0dbd 46c0 41bd
000001c0: 10d2 52bc 2426 5d3c 767e e6bc 4565 1fbc
000001d0: 3e0a cabc d79a e0bc 18ef c0bc ca3a 263d
000001e0: aab0 dc3b 7a43 403d 7e39 4abd c37c e13b
000001f0: 55fb e2bc 53b7 25bd b8e4 ee3c d6a2 90bc
00000200: cae2 8b3c b7fb db3c 5a38 1d3d 70a6 0dbd
00000210: 4bbd fc3b 9bf1 4abc 4813 513d ba48 dabc
00000220: 5626 873d c831 503c 5188 2f3d ef1e 073c
00000230: ee7d 8ebb ea61 febc 2bb0 913c 2ebb 06bd
00000240: e224 cfbb 9258 8f3b f99a 34bc a803 f13b
00000250: ded5 d5bc 2c9c 8c3d b3a0 6fbc 4721 323c
00000260: b71f 453d 515d 863d d56e 5dbd 715b cdbc
00000270: 51f2 e83c 8410 463c d9f8 26bc 6379 20bc
00000280: 03c0 2c3b fb63 5f3d c7a7 0b3d b699 71bc
00000290: e913 8abb a5b0 b63b 3c4b 263c 2947 fdbc
000002a0: 5099 a9bc 5393 10bd 9a5a 0fbd 0b91 443d
000002b0: 6678 ccbc 263c 4a3d c4b7 6bbc ed77 03bc
000002c0: 7d27 08bd d3e3 1ebd 15fc a23c a91f e2bc
000002d0: c1f1 563d 6008 2cbc bba6 143d 403d 393d
000002e0: e17a 1fbd ad97 063d 4196 a23c 81d6 033d
000002f0: ebe2 3a3d 7221 023d 8a75 983c a04b 253d
00000300: 314f 06bd c305 01bd 2f03 0dbc a898 e3bb
00000310: 638b e83b 3f21 1c3d b8bd 093c 8c3c c13b
00000320: 7397 083c f36c b3bc 0cfd 083d 336a f0bc
00000330: 0e91 53bd c95d 553c 7643 a4bc 0ea7 323c
00000340: e1be cdbc 6a7c 07bd 9275 87bc 0a5d 0d3d
00000350: 5ed0 dfbc c3be e43c 89aa 573d b2ea 703b
00000360: 8ce3 d43c 3a85 023c c7fc 993c edea 513c
00000370: 11f1 b2bc eea9 05bd 4fc8 473d 99b4 e73c
00000380: d210 a23b 8e34 283d ff81 93bc 7897 6d3c
00000390: 5b8b c13c daaf 213d a7b7 3dbd 62a6 7dbc
000003a0: 7186 8fb9 8c0a fbbc d3a6 4bbc 0659 45bd
000003b0: eace 6dbc 197c 71bb fa53 3bbd e43b 4e3d
000003c0: 89f6 4ebc 5890 463d d329 c9bc e0be b239
000003d0: cadf 353d f1a3 ef3b 29b6 b53c eff5 c73b
000003e0: e378 22bc 2f4f 10bd 7698 d93c ecff 8ebc
000003f0: 1de0 2bbd 5bc9 863b 0390 aebc 79d3 f4bc
-0.034962118 0.03188851 0.0029074892 -0.047041602 -0.019131528 -0.035361473 0.045261536 -0.0065285685
-0.047607735 0.02865093 -0.010860265 -0.026177634 0.021976855 -0.020950481 -0.00342217 0.040717643
0.0038909533 -0.03151502 0.051410615 -0.028606592 0.012438679 0.031341206 -0.03452375 0.032314584
0.017527357 -0.027747573 0.0055039246 0.03018046 0.007422791 -0.02496445 0.027297767 0.00210735
0.010289462 -0.0005222012 -0.00332824 -0.0068338024 -0.0094475625 -0.008551287 -0.034549173 -0.02851117
0.0049254834 -0.022837222 0.063803546 -0.029215356 -0.00377143 -0.010998456 0.019023566 0.067739345
0.039062075 0.039890252 -0.0060424265 -0.037331004 -0.027654726 -0.028917266 0.0025396121 0.009502141
-0.0074929288 0.055712733 -0.0009686499 0.030821204 0.009395167 0.035280682 0.025945758 -0.05250403
0.021456445 0.035408396 0.05020728 -0.06057716 0.01200831 -0.045914795 0.056002792 -0.02077234
0.028867863 0.012002325 -0.040171 0.025158651 -0.048935905 -0.011655253 -0.018222325 -0.053549927
-0.054302245 0.023586482 -0.03868461 0.012572177 8.669229e-05 -0.011674384 -0.011560402 0.02577678
-0.044933606 -0.019242192 0.03430106 0.046190407 -0.06624486 0.0017482495 0.011431043 -0.03169497
0.027878191 -0.029970372 0.036677737 0.015802335 0.008049399 0.021218183 -0.02465579 0.007862763
-0.058432076 0.007813466 -0.008824064 -0.02533093 -0.03666615 -0.031297084 -0.034452833 -0.047302507
-0.012867466 0.013497863 -0.028136473 -0.009728734 -0.024663087 -0.027417583 -0.023551509 0.04058341
0.006734927 0.04693935 -0.049371235 0.006881328 -0.027707735 -0.040458035 0.029161796 -0.017655771
0.017075915 0.026853425 0.03838382 -0.034582555 0.007712995 -0.012386705 0.05104378 -0.026646007
0.06599109 0.012707181 0.04285461 0.008247121 -0.004348508 -0.031052548 0.017784199 -0.032893352
-0.0063215354 0.004374572 -0.0110232765 0.007355172 -0.026102956 0.06865725 -0.014625716 0.010872192
0.04812595 0.065607674 -0.054060776 -0.025068017 0.028435858 0.012088899 -0.010191166 -0.009794566
0.0026359565 0.05453871 0.03409555 -0.01474612 -0.0042137993 0.005575257 0.010149773 -0.03091772
-0.020702988 -0.03529675 -0.034998514 0.047989886 -0.024959754 0.04937377 -0.014387075 -0.008024198
-0.033240784 -0.03879149 0.019895593 -0.027602987 0.05247665 -0.010500044 0.03629182 0.04522443
-0.038935546 0.032859493 0.019847037 0.03218699 0.045626562 0.031770177 0.018610734 0.040355325
-0.032790367 -0.031499635 -0.008606716 -0.0069456883 0.0070966943 0.038117643 0.008407049 0.0058971103
0.00833689 -0.021902537 0.03344445 -0.029347515 -0.051652007 0.013022848 -0.0200517 0.010904087
-0.025115432 -0.033077635 -0.016535554 0.034512557 -0.027321037 0.027922994 0.05265287 0.0036760983
0.025987409 0.007966334 0.018797291 0.012812358 -0.021843465 -0.03263276 0.048775014 0.028284358
0.004945853 0.041065745 -0.018006323 0.014501445 0.02362602 0.039474346 -0.046317723 -0.015481563
-0.00027375252 -0.030644678 -0.012429911 -0.048180602 -0.014514664 -0.003684765 -0.045734383 0.050350085
-0.012632021 0.0484775 -0.024556076 0.0003409302 0.044402875 0.0073132445 0.022181587 0.0061023156
-0.009916517 -0.035231765 0.026561957 -0.017456017 -0.041961778 0.004113359 -0.021308905 -0.029885994

conv3.0.bias f4 [512]
00000000: 752f 013d da26 8bbc 8477 e13c cfb2 e0bc
00000010: a745 5dbd ebcf 15bd 4008 3dbd d42c 58bc
00000020: 023e 543c dcb7 0e39 ca97 d13c c4d9 4cbd
00000030: cc63 39bd 92a3 c0bc ddb2 40bc ab3b 2abd
00000040: 03ac 9abc 4ebd 3abd 7e28 0a3d b1cc da3b
00000050: 54b6 39bd ab3c 44bd 023e 923d 30ad cd3a
00000060: f596 f13b f238 863d 358e 75bc 8ef0 00bc
00000070: ac7f 333d e876 943b 8b09 ffbc d684 38bd
00000080: 0afa 79bb 5bf0 ac3c e4a7 033d 83b1 e7bc
00000090: ae3f 58bd 9b15 66bd 6ab4 103c 23b3 b73c
000000a0: e00f 8fbb 8346 8ebc 2fc4 eb3a 9726 43bd
000000b0: e356 623d a100 c83c 29f6 5e3b aa8f c73b
000000c0: 1354 353c 4943 8b3c 2752 1a3d a6ac 2a3d
000000d0: f4f3 88bd 554f 913d 9abb f1bc d5cb bb3b
000000e0: c2cc e6bc cd31 693d 1026 a2bc fe20 53bd
000000f0: 7adb 88bd 8294 38bd c3e8 363d 2aac bd3c
00000100: abfa dd3c 55bb 223d b228 103d c71f 1c3d
00000110: 3e78 cb3c 3684 423c cf2a ccbc d981 0a3d
00000120: ae7c d5bc 5185 e73c 6582 a63c 2007 aa3c
00000130: 993e 153b a413 e3bc 959a c33b 7252 3e3c
00000140: 6608 393a 6c3a 2ebd 153e f13c 4ee2 253d
00000150: 95da 683d 8cd5 c0ba 25dc 3fbd 0a83 183d
00000160: d30e 1d3d 6e72 1ebc 43ba 34bd c912 e83c
00000170: 0c86 943c eb5c 5a3d 8cd6 c63c 654a fd3b
00000180: 9f4b 2c3d 8511 11bd fa94 1bbc f4cd 8fbc
00000190: 4284 65bc 6bb7 80bd dfa3 27bd d29a 08bc
000001a0: fcd3 153d 1ba9 07bd 44d0 7bbc 00f8 61bd
000001b0: eeac 26bd b134 9d3c 9a8d 26bd dee8 d23b
000001c0: 6201 923c 0fb7 42bc 825e 7a3b 73bc 7bbd
000001d0: aa1a d8bc 94ad 9b3d b322 bbb9 eb00 813d
000001e0: effc c3bc 0d5f e43b ab4c 36bc e2f9 a2bb
000001f0: f152 22bd 867a a33c f71e edbc 0a37 37ba
00000200: e360 5cbb 1645 bd3c 6aba a23c b70f b1ba
00000210: 2281 2bbb 5264 093d 1873 f23c b194 c1bc
00000220: 24e0 7d3c ac68 593d 72a9 e23c 8abc 75bd
00000230: 4afb 9838 221f c2bc b5c2 93bc ddfe 84bc
00000240: 591f c33b 9d5b 5f3d 7ddc 823c 80cb 4f3d
00000250: 72d8 323d 130b 87bd ecf7 6dba e0df 253d
00000260: 2ea6 fa3c 7db8 5f3b 3701 fb3c f1e8 48bb
00000270: 89b9 2d3d b05b b73c f73a d8ba 6826 9e3d
00000280: 992c 9f3c 55e6 b5bb e2a7 39bd ff2d 313d
00000290: d00e c0ba 29e6 b0bc 27e0 0fbd 6e05 073b
000002a0: f200 ec3c 8e37 583d 44b5 c3bb 820c 833d
000002b0: 6de7 e2ba 0418 c63a 60c2 8bbc 566d 09bc
000002c0: ce39 81bd c089 05bd 2415 9d3b ef43 bbbc
000002d0: 3224 083d b3ef ce3c a439 163d 311c 403d
000002e0: 688e fbbb 7025 323c db76 b03c 435e 06bd
000002f0: d8b4 55bd b066 e0bc dc3d 613c cf30 203d
00000300: cf25 9dbc ae30 733c 5e4b 2e3d 8847 1fbc
00000310: 630a 75bd faf2 e6bc 633c 0e3d f64d 803d
00000320: 670f 29bd 2631 b63c 4a54 efbc b988 d33c
00000330: 7a2d 32bd 9435 b0ba 1255 633d e5ab 25bd
00000340: a650 263d cfaa 57bc 06e6 abbc ce22 7dbd
00000350: 784a 8f3a 426e 2bbd d212 73ba ab42 e23c
00000360: 7606 1bbd e440 97bc b624 213d 20c7 50bd
00000370: 3081 63bb 93e7 c7ba 8fe2 bcbc 3924 9cbb
00000380: 9a10 4fbd 9be0 dabc 8f5c 4bbc 980f 663d
00000390: 9029 833b a58d ff3b 86ef c1bc 1db3 cebc
000003a0: 1288 ad3b 3dd4 893b e1b4 893c 6836 7c3c
000003b0: adaf 2b3d 2e9e bfbc 059b 39bd 49b8 e23c
000003c0: 857e 3cbd df96 5bbc 7cbe fe3c 7c68 41bd
000003d0: 8657 f63c a8fb 633c aa1f 203b 3a7b 83bd
000003e0: 8e33 2f3d 8680 9bbb e1b2 9dbc 291e 703b
000003f0: 7766 4bbd f36e 39bd 432f fe3c 8912 ecbc
0.0315394 -0.0169863 0.02752281 -0.027429013 -0.054021504 -0.03657524 -0.046150446 -0.013194282
0.012954237 0.00013610668 0.025585074 -0.050012365 -0.04526119 -0.023515496 -0.011761394 -0.04156081
-0.01888085 -0.04559069 0.033730023 0.006677233 -0.045339897 -0.04790942 0.07140733 0.0015691873
0.007372732 0.0655383 -0.014987518 -0.007869853 0.04382293 0.0045307763 -0.03113248 -0.045048557
-0.003814342 0.021110704 0.032142535 -0.028282886 -0.052795105 -0.05617295 0.008832077 0.022424286
-0.004365906 -0.017367607 0.0017987544 -0.047644224 0.055258643 0.024414362 0.0034021235 0.006090124
0.011067408 0.016999858 0.037676003 0.041668557 -0.06687155 0.070952095 -0.0295084 0.005731086
-0.028173808 0.05693226 -0.01979354 -0.051545136 -0.06682487 -0.045063503 0.044655573 0.023153383
0.027097067 0.039729435 0.03519506 0.038116243 0.02483761 0.011872342 -0.024922756 0.03381524
-0.026060428 0.028261812 0.020325849 0.02075535 0.0022772907 -0.027719326 0.0059693553 0.011616336
0.00070584414 -0.042536184 0.029448548 0.040499024 0.05684908 -0.001471208 -0.046840806 0.037234344
0.038344216 -0.009670837 -0.044122946 0.02832927 0.018130325 0.05331127 0.024272226 0.007729816
0.042064305 -0.0354171 -0.009495968 -0.01755426 -0.0140085835 -0.06284984 -0.040927764 -0.008337693
0.036579117 -0.033120256 -0.015369479 -0.05516815 -0.040692262 0.019190164 -0.040662386 0.0064364513
0.017822925 -0.011884465 0.0038203304 -0.061459016 -0.026379902 0.07601467 -0.00035693272 0.06299003
-0.02392432 0.0069693387 -0.0111266775 -0.004973636 -0.03962988 0.019955885 -0.02894543 -0.00069890975
-0.0033627085 0.023104232 0.01986428 -0.0013508712 -0.0026169498 0.03354294 0.029595897 -0.023630472
0.015495334 0.05307834 0.027668688 -0.059994258 7.294731e-05 -0.023696486 -0.01803718 -0.01623481
0.0059546647 0.05453073 0.015974278 0.050731182 0.04366345 -0.06593909 -0.0009077776 0.040496707
0.030596819 0.0034137063 0.030640228 -0.0030656422 0.04241327 0.022382587 -0.0016497065 0.07722169
0.019430446 -0.0055511394 -0.04532612 0.043256756 -0.0014652852 -0.021594124 -0.035125878 0.0020602602
0.028809045 0.052787356 -0.0059725363 0.0639887 -0.0017311402 0.0015113358 -0.017060459 -0.008387884
-0.063098535 -0.03260207 0.00479378 -0.022859542 0.033237644 0.025260782 0.036676064 0.046901885
-0.0076768883 0.010873184 0.02154105 -0.03280474 -0.05217442 -0.027392715 0.013747659 0.039109048
-0.019183068 0.014843149 0.042552345 -0.009721644 -0.05982436 -0.028192032 0.034725558 0.0626487
-0.041274454 0.022240233 -0.029214997 0.02582203 -0.0435004 -0.0013443702 0.05550105 -0.040447135
0.040604256 -0.013163283 -0.020983707 -0.06180077 0.0010932228 -0.041853197 -0.0009272519 0.02761968
-0.03784796 -0.01846356 0.03934165 -0.05097115 -0.0034714453 -0.001525151 -0.02305725 -0.0047650603
-0.05055294 -0.026718428 -0.012412204 0.056167215 0.0040027574 0.0077988678 -0.023673784 -0.025231892
0.005295762 0.004206209 0.016809883 0.015393831 0.041915584 -0.023390856 -0.045313854 0.027675765
-0.046019096 -0.01340267 0.03109669 -0.047218785 0.030071031 0.01391498 0.0024432936 -0.06419988
0.042773776 -0.004745546 -0.019250335 0.003663907 -0.049658265 -0.045271825 0.031028396 -0.028817432
