basis_net/rnn_net/Lenet.pth (torch, 4943 bytes, 7 tensors)

lc1.weight f4 [5, 20]
000000 9a ab 18 3c 89 72 0f 3e b8 42 50 3d 66 a8 dd 3c
       0.009318257 0.14008535 0.050844878 0.027057838
000010 f8 3c 68 bd 55 47 38 3c 6e 53 5e 3d 1d ac 52 3e
       -0.05669877 0.011247476 0.054278784 0.20573469
000020 65 47 ad bc a7 f7 47 3e e2 97 c8 bc 8d 07 f4 3d
       -0.021152208 0.19528066 -0.024486486 0.11915503
000030 8e 7c 09 3d 8f c8 33 3e af b1 de 3d 50 78 80 3d
       0.03356605 0.17556976 0.10873734 0.06272948
000040 86 16 4f 3e f3 eb 23 3d 5c d9 5b 3e 21 8f a6 3e
       0.20223436 0.04001994 0.21469635 0.32531074
000050 56 0a 9e bc 9e 36 1a 3d 24 f1 19 bc 38 16 73 bc
       -0.019292038 0.037649743 -0.009395871 -0.01483684
000060 6c a4 cc 3c cb 89 ad bc 2b c4 ac bc be 7c 44 bc
       0.024980746 -0.021183869 -0.021089634 -0.0119926315
000070 10 ca 2a 3d db d7 c3 ba 9b 86 71 3d 8e 7f 5d 3d
       0.041696608 -0.0014941649 0.05896626 0.054076724
000080 c0 eb c6 3c 09 1b a4 3d fb de 11 bd 8c a8 a2 3e
       0.024282336 0.08012969 -0.03561304 0.31769216
000090 c5 23 d3 3e 37 42 ed 3e f1 ec e5 3e 51 a2 a0 3f
       0.41238227 0.4633958 0.44907334 1.2549535
0000a0 2d 55 32 bd b7 8f 38 be 33 7a f8 3c 9b 1a a3 3d
       -0.04353826 -0.18023573 0.030331707 0.07964059
0000b0 f6 4c b0 bc 60 56 0a bd 8f 63 9a 3d a2 6f 9c 3d
       -0.021521073 -0.03377378 0.075385205 0.0763848
0000c0 26 55 60 bd b3 49 c8 3c 96 83 fa bd 85 9f 63 bc
       -0.054768704 0.024449205 -0.12232129 -0.013893013
0000d0 6d a9 9e bd bb d8 3b be 6f 45 d2 3d 3e ac 42 3e
       -0.07747159 -0.18344395 0.1026715 0.19011018
0000e0 89 98 d5 3c 97 bc 7c 3e 82 02 88 3e cb 2c 2a 3f
       0.026073711 0.24681316 0.26564413 0.664746
0000f0 ef cf 8f 3d 1e 03 56 3d 2a d9 b6 3b 06 a5 99 bc
       0.07022082 0.052249067 0.005580087 -0.018755447
000100 22 43 3c bd b1 de 8d 3d 24 20 8e 3a f2 cb 3f bb
       -0.04596246 0.06927241 0.0010843319 -0.0029265848
000110 48 32 61 bd 76 e9 f4 3b f1 33 48 bd 5b 93 c2 bd
       -0.054979593 0.00747412 -0.04887766 -0.09500762
000120 1e e5 ea 3a d3 5e 05 bd df d6 a0 3c e1 a9 47 3d
       0.0017921065 -0.032561135 0.019633709 0.048745994
000130 bb 66 4c 3e a9 d5 4b 3e af be af 3e 24 1b 41 3f
       0.19961064 0.19905724 0.34325168 0.7543204
000140 47 ce 5a 3d 38 ee 0b 3e 20 94 45 3c d9 4f d2 bd
       0.053419378 0.13665092 0.0120592415 -0.10269136
000150 63 67 6d be c6 79 93 3d 2a 9f 85 3d 9f 3a 2f 3d
       -0.2318397 0.07200961 0.06524499 0.042780515
000160 e7 60 31 bd b1 76 00 3d 95 a5 36 be 4f 9b 33 be
       -0.043305304 0.031363193 -0.17836602 -0.17539714
000170 9d d1 47 be dd c9 1c bd 86 d2 99 bd 06 26 e3 bd
       -0.19513555 -0.03827845 -0.07510857 -0.11091237
000180 22 a0 60 be 3e 2e 08 be 16 19 3c 3e c7 da aa bd
       -0.21936086 -0.1329889 0.18368945 -0.0834251

lc1.bias f4 [5]
000000 ea e1 3c 3e 9f 92 a7 be 03 08 0a 3e 98 ef ab bd
       0.18445554 -0.3272905 0.13479619 -0.08395308
000010 9d f4 17 be
       -0.14839406

rnn1.weight_ih_l0 f4 [30, 5]
000000 f1 af ef 3d 8b 3a 1a bc 9d 64 9a 3d 57 d6 b2 bc
       0.1170348 -0.009413372 0.07538722 -0.02183072
000010 51 4d 98 3d 08 eb 55 3e 6d fa f4 be 16 90 54 3b
       0.07436622 0.20890439 -0.4784731 0.0032434515
000020 1a 2f 82 be 9a 82 ae 3d b0 da 36 3e 2b 5e 88 3e
       -0.2542656 0.08521004 0.1785686 0.26634344
000030 04 fb f4 3d 99 6e 00 3e 69 36 93 3e ee d8 1d be
       0.1196194 0.1254219 0.2875245 -0.15414783
000040 a0 74 73 3f 80 6f 80 3e 08 23 aa 3e 5d 40 17 3e
       0.9509983 0.25085068 0.33229852 0.14770646
000050 09 d1 90 3e 1c 55 66 be 6f 4c 9d bc 33 7d 3b 3e
       0.2828448 -0.22493404 -0.019201485 0.18309478
000060 f0 03 f9 bd 71 25 5d 3e fe c4 38 3f d4 01 a3 3d
       -0.12158954 0.21596314 0.72175586 0.07959333
000070 28 b2 6f 3e 4c 84 50 bd f7 e0 12 bd b3 3d 8b bf
       0.23407805 -0.050907418 -0.035859074 -1.0878204
000080 41 c4 00 be 5a 67 0f bf 9e 4f 1b 3d 2d 32 4f 3e
       -0.12574865 -0.56017077 0.037917726 0.20233984
000090 b8 84 fd 3e bd f3 8a 3e 4f a1 98 3e 35 cb 1c 3e
       0.4951532 0.27139083 0.2981057 0.15311892
0000a0 f0 a7 5b be 2a 72 6e bf 9a 86 ab be da d3 d0 be
       -0.21450782 -0.9314295 -0.3350113 -0.4078663
0000b0 5d 82 9d be b6 02 c3 3b 8c 92 d9 3e 26 6d aa 3e
       -0.30763522 0.005951251 0.4249462 0.332864
0000c0 1f c5 9a 3e 26 77 e6 3d 34 f1 9a be 5b b8 3b bf
       0.30228516 0.112531945 -0.30262148 -0.7332818
0000d0 07 39 dd 3b ad db f2 be a1 cf 75 3e 72 3e cf be
       0.006751183 -0.47433224 0.24004985 -0.4047733
0000e0 78 b8 0a bf b5 da a2 be eb cb 8a be 93 c8 07 be
       -0.54187727 -0.31807485 -0.27108702 -0.13260107
0000f0 44 90 a5 3c d9 42 83 bf cd f4 31 be a6 78 01 bf
       0.020210393 -1.0254775 -0.1737854 -0.5057472
000100 66 b1 3e bd 30 cd 03 be 04 d1 3f bf d8 69 24 bf
       -0.0465559 -0.12871242 -0.7492831 -0.64224005
000110 25 69 97 be a5 a5 67 3e e5 26 da bd bd b1 2c bf
       -0.29572406 0.22621782 -0.1065195 -0.6745871
000120 d4 5b 4c be 2e 37 65 be ff f9 29 3e 03 22 ed bd
       -0.19956905 -0.2238433 0.16599272 -0.11578753
000130 af 8d 23 bf d8 aa 8d bd 1f 6b 02 bf 1f 71 f3 3d
       -0.63888067 -0.069173515 -0.50944704 0.118868105
000140 d9 14 ce 3e 83 be ae bf 00 0c 75 be 3f 0e 53 bf
       0.4025028 -1.365189 -0.23930359 -0.8244361
000150 f9 5f 2c 3e 2f 75 e7 3a 67 a4 96 bf 94 83 c2 bd
       0.16833486 0.0017658825 -1.1768922 -0.09497753
000160 f6 df 0f bf bf 1a 9c be da 3e dc 3e 4b 53 e9 bf
       -0.5620111 -0.30489156 0.43016702 -1.8228544
000170 6c e5 6c be ea 2c 31 bf ce b3 f8 bd 03 14 c2 be
       -0.23134392 -0.6920916 -0.1214367 -0.37905893
000180 c5 85 3c bf e2 1e d5 be ef ea 0a bf 8e 61 31 3e
       -0.73641616 -0.41625124 -0.5426473 0.1732237
000190 73 af 86 3e cd 95 08 bf 29 f6 7a be 23 5b 89 be
       0.26305732 -0.5335358 -0.24507965 -0.26827344
0001a0 a2 ed a8 bd a9 e5 96 be 52 a3 f5 be 41 63 4d be
       -0.0824845 -0.29472092 -0.47976166 -0.20057394
0001b0 e4 49 39 be 8b f2 8d 3e 4a 32 bd be 96 6d f2 be
       -0.18094593 0.27724108 -0.3695243 -0.47349232
0001c0 e9 5b 69 be 06 64 95 3d 94 e7 87 3c d8 14 07 3f
       -0.22788967 0.072944686 0.016589917 0.5276618
0001d0 82 0c 1a bf 06 e9 54 be 5d 10 9c be 1f 62 a7 3d
       -0.60175335 -0.20792016 -0.30481234 0.08173012
0001e0 3a 0b 7f bd ee 64 23 bf f1 33 0b bd 6f e2 bd be
       -0.062266566 -0.6382588 -0.033985082 -0.37086818
0001f0 f9 00 75 3d 3e ac d9 3d 83 84 9b 3e 0a ea 3e 3e
       0.05981538 0.10628556 0.30374536 0.18643966
000200 c5 61 4f 3e 07 45 e2 3d 79 a7 dc 3c 63 e3 f7 be
       0.2025214 0.11048322 0.026935326 -0.4841567
000210 e6 fe 97 be e8 d9 26 be 3b 4e 00 be f0 d5 d5 bd
       -0.2968666 -0.16294062 -0.12529843 -0.10441196
000220 e9 25 06 bf b3 f3 75 bd 6e a9 18 be a5 eb 11 3e
       -0.52401596 -0.060046863 -0.14908382 0.14250048
000230 8f c4 94 be 29 44 2a 3f b5 d5 01 3e fd e5 af 3e
       -0.29056212 0.66510254 0.12679179 0.34355155
000240 da 4a 55 bc 72 11 ef 3e 52 85 1e 3f 46 c9 b0 3d
       -0.013018334 0.46692997 0.6192218 0.0863214
000250 d1 1a ca bc 39 f0 88 ba
       -0.02467099 -0.0010447568

rnn1.weight_hh_l0 f4 [30, 10]
000000 85 92 11 3e 33 b0 36 bd ae 45 09 be 45 1b a4 3e
       0.14216049 -0.04460163 -0.13405487 0.32052055
000010 01 90 a5 3e 46 70 eb be 10 83 8f 3c 2c 38 9e 3e
       0.3233643 -0.45984095 0.01751855 0.3090223
000020 0e b9 53 bd 7e de 7f be 39 2c d8 bc a0 a3 a8 be
       -0.051690154 -0.24987218 -0.026388275 -0.32937336
000030 c5 82 bf bd 9d a3 ba 3d 5e 10 fe 3d 78 31 7d ba
       -0.09351114 0.09113238 0.124054655 -0.00096585555
000040 ed 48 c5 3d f1 d3 cf 3c 81 56 23 bd bd ac 38 3e
       0.0963305 0.025369616 -0.03987742 0.18034644
000050 2b 52 50 bd 3e 19 ae be 3e c8 8a bc ee 24 22 be
       -0.05085961 -0.34003633 -0.016941186 -0.158344
000060 ae e8 ee 3d 3d 28 d7 3e 73 fd f8 bd dd 8a 39 be
       0.11665474 0.42022887 -0.121577166 -0.18119378
000070 6f 0f 52 3d 67 0f 90 3e c8 b6 2d 3d b4 6e 0a 3f
       0.05128425 0.2813675 0.042410642 0.5407517
000080 8f 40 03 3f 26 0c b0 3d ba 3a 57 3e 31 6b a7 be
       0.51270384 0.08596067 0.21018496 -0.32698968
000090 fb a1 5a 3e 30 c0 c6 3d 37 1c 86 bd ae 38 e0 be
       0.21350853 0.097046256 -0.0654835 -0.43793243
0000a0 be db e2 bb 27 19 e7 bd 17 03 a2 3d e4 0e ff bd
       -0.006923168 -0.11284094 0.079107456 -0.12454012
0000b0 82 10 e4 3c 50 8b a7 be e8 d4 39 bc e1 f8 c6 bd
       0.027839903 -0.32723475 -0.011342265 -0.09715439
0000c0 b6 64 18 3c d5 1b 27 3e 6c c1 6a 3e 35 d0 f5 3e
       0.009301355 0.16319211 0.22925347 0.48010412
0000d0 a6 fe 5a be cf 8c ad 3e 25 06 5a bd 35 bb 85 be
       -0.21386203 0.3389649 -0.053228516 -0.2611939
0000e0 e4 46 15 bc 40 37 b3 3e 6c 8d f1 bd d5 85 08 bd
       -0.00911114 0.3500309 -0.11794552 -0.033330757
0000f0 92 4f ea 3c 6d 5f 92 3e 73 ef 1e bf 6d c6 8b 3e
       0.028602395 0.2858843 -0.6208412 0.27299824
000100 c2 06 8f 3d 02 97 5b bc b7 5a a5 bc c7 1a ea bd
       0.06983711 -0.013402702 -0.020184858 -0.114308886
000110 92 72 5a bd c5 ce 6d 3f 99 7b 9c 3e 17 d7 ab 3e
       -0.05333192 0.9289363 0.30563048 0.33562538
000120 24 c0 6b be 6c 65 13 bc 2a 1f 28 be 08 7c 0c be
       -0.23022515 -0.008996349 -0.16418138 -0.13719189
000130 f8 06 0a be dc a6 50 3e a2 6d d7 be e1 97 d2 bc
       -0.13479221 0.20376152 -0.4207583 -0.025707187
000140 7b d2 1a 3e 26 b6 e3 3e b2 b2 b7 be 09 2c 27 3e
       0.15119354 0.44474906 -0.3587852 0.16325392
000150 67 55 04 bc 57 e6 44 be bf 7d 34 bd 42 28 d4 3e
       -0.008077002 -0.19228493 -0.044065233 0.41436964
000160 28 31 c0 bd 7e ac 47 3f 6d 8d 8c 3e 15 9e a1 3d
       -0.09384376 0.7799758 0.2745165 0.0789148
000170 c4 63 bf be 58 6c 6f be a2 8c 9b be 70 9f 34 3e
       -0.37380803 -0.23381174 -0.30380732 0.17638946
000180 09 25 81 bd 9b de 32 be 2f 9c 51 bd da c6 5f 3e
       -0.06305892 -0.1746773 -0.05117434 0.218532
000190 55 60 7a bd 78 e9 a6 3e ab 71 93 3e 20 a7 a2 3e
       -0.061127026 0.32599998 0.2879766 0.3176813
0001a0 db 55 85 3d 14 f2 83 bc a3 d1 2c 3f 8e 85 92 3f
       0.06510516 -0.016106643 0.6750738 1.1447008
0001b0 7c 93 d3 3e 01 d0 8a be 12 42 ee 3d f2 31 0c 3d
       0.4132346 -0.2711182 0.11633696 0.03422732
0001c0 d1 b5 04 3f 3c 9e 4a bd b5 1d c8 bc 10 9b 03 3e
       0.5183993 -0.04946731 -0.024428228 0.1285212
0001d0 8a e4 5a 3e 4d 8b 32 3f 3c 60 f0 be ce df b3 be
       0.21376243 0.69743806 -0.4694842 -0.35131687
0001e0 99 4c 9a be e5 e0 99 be e3 32 00 bf 7d 2a f3 3d
       -0.30136564 -0.30054393 -0.50077647 0.11873338
0001f0 40 12 bd 3d fb a9 6c 3e 3a 45 43 be 4f ec a9 bd
       0.092319965 0.23111717 -0.19069377 -0.082970254
000200 d0 36 9e 3d ea b5 3f 3f 56 a8 24 3f 81 87 66 bc
       0.077252984 0.74886954 0.6431936 -0.014070393
000210 ff f7 8b 3f a3 ea bf 3e a6 a1 aa 3e 46 ba 25 bf
       1.0935057 0.374837 0.33326453 -0.64737356
000220 94 52 b2 bd 51 97 e1 3f 7a 4a 2a 3f eb b6 5f bf
       -0.08707157 1.7624303 0.6651989 -0.87388486
000230 87 00 15 3f 56 b9 f0 3e 35 b9 13 3f f3 b5 ec 3d
       0.5820393 0.470164 0.5770448 0.115581416
000240 1a a4 99 bc dc 58 d0 be fa 2b 34 bd 07 fe ca 3f
       -0.018755008 -0.40692794 -0.04398725 1.5858773
000250 10 d0 cb 3e 1c 6d 5b bf a6 b9 dc 3e ac fd 8c 3e
       0.39807177 -0.8571336 0.4311039 0.27537286
000260 3f 6a b8 3e 2c 12 62 3e 22 43 6c 3e aa 67 cc be
       0.3601856 0.22077245 0.23072484 -0.3992284
000270 de ad aa bd 87 02 19 3f 55 79 89 3e bc 39 14 bd
       -0.08333944 0.5976948 0.26850381 -0.036187872
000280 97 ea 15 3f 75 04 52 3f 98 d2 25 3f 24 ef d3 3e
       0.5856108 0.8203805 0.64774466 0.41393387
000290 53 71 ea 3e da c5 50 bf 4b c8 f9 3e 6f 5c 9b 3f
       0.45789585 -0.815519 0.48785624 1.2137583
0002a0 63 6f d4 bd 54 8c 04 be 87 df 4f be a1 15 a5 be
       -0.10372808 -0.12944156 -0.20300113 -0.32243064
0002b0 e6 1a 5f be 24 35 56 3e 35 0c e4 3c c7 1c 91 be
       -0.21787605 0.20918709 0.027837852 -0.28342268
0002c0 24 6c 72 3c 52 27 11 3f 21 3f 7d bd 6f e5 8e 3e
       0.014796291 0.56700623 -0.061827783 0.2790942
0002d0 f0 e3 64 3f 6e c4 b2 3f 7f 34 ca 3f 5a ba 25 3f
       0.89410305 1.3966196 1.579727 0.64737475
0002e0 a1 13 86 3f 3a 6c ba bf 9e e4 17 3f 03 df c6 3f
       1.047474 -1.4564278 0.5933322 1.5536808
0002f0 81 c5 8b 3d 39 26 d9 bf 53 28 a1 3c a3 89 da 3e
       0.0682478 -1.696479 0.019672548 0.42683133
000300 0f a7 27 3e 20 64 bc 3e 6d b1 12 3d 65 fa 44 bd
       0.16372322 0.3679514 0.035813738 -0.048090357
000310 7b e4 c5 3e 81 c9 6a 3e 66 c6 59 3b 5e b2 1d be
       0.3865088 0.2292843 0.0033229827 -0.15400073
000320 fb ea 34 3d 83 81 ee be fb 6d 9c 3e c6 f3 23 be
       0.044169407 -0.46583185 0.30552658 -0.16010961
000330 b9 d3 4d 3e e0 73 81 bd 1d 05 c4 bd 8a 4a 77 be
       0.20100297 -0.063209295 -0.09571288 -0.24149528
000340 97 9e 4a 3e 41 3a ea bb 1d 16 b6 3d 81 3a b0 be
       0.1978706 -0.0071480577 0.088909365 -0.34419635
000350 e7 44 67 be 4f 12 13 be 8c f3 53 3e e8 45 f6 bb
       -0.22584878 -0.14362453 0.20698375 -0.0075156577
000360 46 ca a4 bc 7a 3e d2 be 1f ab 4a bd 92 f6 0b 3c
       -0.020115983 -0.4106329 -0.0494796 0.008542674
000370 a3 88 3e bd 96 52 79 3a 87 cf 96 3e 34 a4 a5 3e
       -0.046517026 0.00095109025 0.29455206 0.3235184
000380 ad 15 d0 3e 3b a9 f5 be e9 94 b3 3e 22 c0 97 3e
       0.40641537 -0.47980675 0.35074547 0.29638773
000390 13 a4 3d be fd 1f 08 bf b0 7c 62 3a dd ed a9 bd
       -0.1851962 -0.5317381 0.00086397957 -0.08297322
0003a0 a5 71 11 bc b9 35 bd 3c 6f 6d 45 3c fc f6 27 be
       -0.008877193 0.023096906 0.012050017 -0.16402811
0003b0 08 77 57 3e 28 34 fe 3d c8 e7 85 3e 35 6a 84 be
       0.210415 0.12412292 0.26153398 -0.2586228
0003c0 0b 49 37 bd 71 63 3a be d6 f7 56 be 4d a8 7d 3d
       -0.044747394 -0.18201996 -0.2099298 0.061928082
0003d0 f7 cd 94 bd b9 36 7c 3e 77 9a f5 3d 1f 7b b8 bd
       -0.07265847 0.2463025 0.119923525 -0.090078585
0003e0 0a e7 4a be 6f dd e9 3d 77 b0 b0 be 40 da b7 be
       -0.19814697 0.11419188 -0.34509632 -0.359087
0003f0 a6 c9 1a bd 57 d0 2e 3e 33 c0 ab 3d b0 90 8c 3e
       -0.037789963 0.17071663 0.083862685 0.27454138

rnn1.bias_ih_l0 f4 [30]
000000 b6 c9 b8 3e dc 0f e1 bd 8a b8 f9 bd 3e 3c b7 be
       0.36091393 -0.10989353 -0.12193401 -0.3578815
000010 61 83 95 3e f9 42 aa be be 46 0d 3e 71 c8 08 3e
       0.29201797 -0.3325422 0.13796517 0.13357712
000020 0b 6b 90 3f 2e 5d b1 bd 6f 7b 00 3f a6 1e c8 3c
       1.1282667 -0.08660351 0.50188345 0.024428677
000030 9c 35 bd bd fb de ca 3d eb 15 3b 3e 5b 3b 90 3e
       -0.09238741 0.099058114 0.1827008 0.28170285
000040 d4 fa 9c 3f d0 b4 48 3f bf 58 ab 3f a0 dc cb be
       1.2264047 0.784009 1.3386458 -0.3981676
000050 38 07 5c be fb 5f cf bb 82 b1 81 be c2 e6 90 3d
       -0.21487129 -0.0063285804 -0.2533074 0.070752636
000060 6d 86 9c be d8 50 43 be f4 40 2d be 20 c5 81 3d
       -0.3057131 -0.19073808 -0.16919309 0.06336427
000070 62 dc 39 be e6 f0 9e 3e
       -0.18150476 0.31043166

rnn1.bias_hh_l0 f4 [30]
000000 4f 72 26 be a1 fa 4c be ef 27 a3 3e 33 ae 76 3d
       -0.16254543 -0.20017482 0.31866404 0.060224723
000010 50 18 5c 3e a9 ba 86 be 54 b7 9b 3e ab 4d ed bd
       0.2149365 -0.26314285 0.30413306 -0.115870796
000020 6d 06 77 3f 35 af df 3d f7 16 b1 3e fb 43 a5 be
       0.9649418 0.1092209 0.34587833 -0.32278427
000030 c9 79 82 3c b9 32 21 be 27 b2 0b 3e cb 8e 3a be
       0.015927212 -0.15742005 0.13642178 -0.18218534
000040 c0 86 a6 3f c2 18 24 3f a4 be be 3f d5 64 46 bf
       1.3009872 0.6410028 1.4901929 -0.7749761
000050 ce 4f 89 3e d5 1f 87 3e b9 be c2 be 94 e6 04 3e
       0.268187 0.26391473 -0.38036135 0.12978584
000060 26 04 b6 be fd 46 91 3e 98 33 ea 3e 86 f9 03 3e
       -0.3555004 0.28374472 0.45742488 0.12888154
000070 eb ab 58 bf a2 cd 90 3e
       -0.84637326 0.28281885

lc2.weight f4 [1, 10]
000000 e6 53 02 bf 95 62 71 bf e7 56 11 bf 56 71 10 bf
       -0.5090927 -0.9429105 -0.5677323 -0.56422937
000010 ce a0 34 bf 1f 61 5a 3f 69 b9 17 bf cd 5f 4b bf
       -0.7055787 0.85304445 -0.5926729 -0.79443055
000020 fd f1 46 3f d0 6a 24 3f
       0.77712995 0.6422548
