basis_net/rnn_net/RnnNet.pth (torch, 4751 bytes, 7 tensors)

lc1.weight f4 [5, 10]
0	0x3bddb98b	0.006766503
1	0x3a02f2cb	0.00049952854
2	0x3bb14cab	0.005410751
3	0x3bc2445c	0.005928559
4	0x3b544be1	0.003239386
5	0x3e1d110e	0.15338537
6	0x3e453893	0.19259863
7	0x3e6fc4c3	0.23414902
8	0x3e8335e9	0.25627068
9	0x3f2a9771	0.6663733
10	0x3d861445	0.06546835
11	0x3c743810	0.0149059445
12	0x3d68bc59	0.056820247
13	0x3d7a6936	0.061135493
14	0x3d2d1f4f	0.042266186
15	0x3e622228	0.22083342
16	0x3e744021	0.23852588
17	0x3e3e4f95	0.18585046
18	0x3e9768a8	0.29572034
19	0x3f03e5ce	0.5152253
20	0x3ddeac41	0.108726986
21	0x3ce5cee7	0.02805276
22	0x3dc27b89	0.09496219
23	0x3dd291a8	0.10281688
24	0x3d970414	0.07373825
25	0x3e67ef60	0.22649908
26	0x3e5643e9	0.20924343
27	0x3d665f39	0.056243155
28	0x3e78f6e7	0.24312936
29	0x3e0d3d45	0.13792904
30	0xbc7c686c	-0.0154057555
31	0x3b2e85fd	0.0026630156
32	0xbc4380e9	-0.01193259
33	0xbc3e9f8e	-0.0116347205
34	0xbb1abe8c	-0.002361211
35	0x3e3b602c	0.18298405
36	0x3e665617	0.22493778
37	0x3e88f6e2	0.26750857
38	0x3ea4857b	0.32133088
39	0x3f44f95d	0.76943
40	0xbc7579cb	-0.014982651
41	0xbcc91456	-0.02454583
42	0xbc9418de	-0.018078264
43	0xbcbf8208	-0.023377433
44	0xbd0cc6b9	-0.034369204
45	0x3c0c3ea6	0.008559858
46	0x3d9eeca3	0.077599786
47	0x3e808898	0.25104213
48	0x3d9cbfb4	0.07653752
49	0x3f35315a	0.7077843

lc1.bias f4 [5]
0	0xbf28b4c9	-0.65900856
1	0xbe617bd0	-0.22019887
2	0x3ea1ec54	0.31625617
3	0xbd5ff96e	-0.054681234
4	0x3cf48884	0.029850252

rnn1.weight_ih_l0 f4 [30, 5]
0	0x4096d562	4.7135477
1	0xbe1522ed	-0.14564104
2	0x3dc7d37b	0.097571336
3	0x3f5ecb10	0.870286
4	0x3f09c1da	0.5381142
5	0xbefd09ba	-0.49421483
6	0xbf5f5bb3	-0.87249297
7	0x3e08f97c	0.1337642
8	0xbef95a9d	-0.48701945
9	0xbeb17bc6	-0.34664744
10	0x3e592f84	0.21209532
11	0xbd38826e	-0.045046262
12	0xbd6bf342	-0.057605036
13	0xbf1ce68f	-0.61289304
14	0xbe291f13	-0.1651576
15	0x3d9f9114	0.07791343
16	0x3e113d47	0.14183532
17	0xbe67902f	-0.22613595
18	0xbf049cec	-0.51801944
19	0xbe5d2b6e	-0.21598598
20	0x3e7d40bf	0.2473173
21	0xbc962a7d	-0.018330807
22	0xbeaadd7c	-0.33372104
23	0x3e2a4e66	0.16631469
24	0x3e06a8ed	0.13150378
25	0x3f1605a5	0.5860236
26	0x3f1e89a8	0.61928797
27	0x3d71612e	0.05893057
28	0x3f2c12a2	0.6721593
29	0x3e55693a	0.20840922
30	0xbe29a449	-0.16566576
31	0xbe009fdf	-0.12560986
32	0xbe7268b7	-0.23672758
33	0x3ed1b31b	0.4095696
34	0x3e6fab19	0.23405112
35	0xbce7c6f7	-0.028293116
36	0x3e941ad7	0.28926727
37	0x3e7a8a74	0.24466878
38	0x3ebe674f	0.37188193
39	0x3ec5bd1b	0.3862084
40	0xbcb589f8	-0.022160515
41	0xbf0c4cfc	-0.5480497
42	0x3e6d04a4	0.23146302
43	0xbf65750b	-0.8963172
44	0xbecfd28c	-0.40590322
45	0xbfc7964e	-1.5592744
46	0xbe369a3c	-0.17832273
47	0x3cf0cfe8	0.029396012
48	0xbef00844	-0.46881306
49	0xbf2c40af	-0.672862
50	0xbe3c5b6a	-0.18394247
51	0xbe1c3134	-0.15253145
52	0xbe8fa6f4	-0.28057063
53	0xbf121cb4	-0.5707505
54	0xbece3922	-0.40277964
55	0xc02ed7c7	-2.73192
56	0xbdf1618f	-0.11786186
57	0xbeaf6cfe	-0.34262842
58	0x3eba2a25	0.3636028
59	0xbe14152c	-0.14461201
60	0xbe8ec44f	-0.27884147
61	0xbf16290e	-0.58656394
62	0xbd46652a	-0.04843632
63	0xbf1b9b20	-0.60783577
64	0xbf19f867	-0.60144657
65	0xc073a735	-3.8070805
66	0xbf08935a	-0.5334984
67	0xbd3aca7e	-0.045603268
68	0xbf99ff16	-1.2030971
69	0xbef09492	-0.4698835
70	0xbf2d4792	-0.6768733
71	0xbf1fbda3	-0.6239874
72	0xbe111617	-0.14168583
73	0xbea681ae	-0.32520813
74	0xbe8d374d	-0.27581254
75	0xbf5d4df0	-0.8644705
76	0xbf11715d	-0.56813604
77	0x3d72074a	0.059088983
78	0xbef583a3	-0.47951993
79	0xbe816c79	-0.2527807
80	0xbed13bd8	-0.4086597
81	0xbf2e24b2	-0.6802474
82	0x3dcd2664	0.10017088
83	0xbf26bbb9	-0.6513019
84	0xbee545c0	-0.44779778
85	0xbf153b81	-0.5829392
86	0xbe4b27ce	-0.19839403
87	0xbccd1359	-0.02503364
88	0xbf55f558	-0.8357749
89	0xbeb324f0	-0.3498912
90	0xbec3a422	-0.3821116
91	0xbf3602bd	-0.7109793
92	0x3eb1b948	0.3471167
93	0xbf466be6	-0.7750839
94	0xbe5dc062	-0.2165542
95	0xbf5765d8	-0.84139776
96	0xbed3aff4	-0.4134518
97	0xbe5d8f0c	-0.216366
98	0xbf612563	-0.8794767
99	0xbecbbc44	-0.39792073
100	0x3ffb7f8a	1.9648297
101	0x3ed2b674	0.41154826
102	0x3e297f29	0.16552414
103	0x3fa1868c	1.2619185
104	0x3ef83488	0.48477578
105	0x3f187b9f	0.5956363
106	0x3dc73ab2	0.09727992
107	0xbe477da9	-0.1948153
108	0x3f13d8fe	0.5775298
109	0x3c25da5f	0.0101228645
110	0x3e0eb003	0.1393433
111	0x3e4225b4	0.18959695
112	0xbdae1683	-0.085003875
113	0x3f2419ac	0.6410167
114	0x3ca67656	0.020320099
115	0xbe6b935c	-0.23005432
116	0xb9a7138d	-0.0003186729
117	0x3e06c6d2	0.13161781
118	0x3f35c0be	0.70997226
119	0x3e7a9bef	0.24473546
120	0x3d0b82ba	0.034060217
121	0xbe3aa20b	-0.18225877
122	0x3d8a5966	0.06755333
123	0xbf17a170	-0.5923071
124	0xbe61c0b1	-0.22046162
125	0xbcec2e78	-0.028830752
126	0xbec84673	-0.39116248
127	0x3e4a121c	0.1973347
128	0xbf2ac51c	-0.66707015
129	0xbd3b1a51	-0.045679394
130	0xbdfb9aa7	-0.12285357
131	0xbccd773c	-0.02508127
132	0x3e941d44	0.28928578
133	0x3eede040	0.46460152
134	0x3ed61b12	0.41817528
135	0x3d98f477	0.07468503
136	0xbe76cfb5	-0.24102671
137	0xbdc4f14f	-0.096163385
138	0xbf1eaeef	-0.6198568
139	0xbdec0f56	-0.115263626
140	0x3c6ed2aa	0.014576593
141	0x3ec89b48	0.3918097
142	0xbde0d72e	-0.10978542
143	0x3ed995f6	0.42497224
144	0x3da3c490	0.07996476
145	0x3d8d5e29	0.06902725
146	0xbe7f73df	-0.24946545
147	0x3d35dc88	0.044399768
148	0xbf0dd82e	-0.5540799
149	0xbe42824b	-0.18995015

rnn1.weight_hh_l0 f4 [30, 10]
0	0xbd451623	-0.048116814
1	0x3cbc9dfe	0.023024555
2	0x3ddac944	0.106829196
3	0xbeab3c5d	-0.3344449
4	0x3eb06f73	0.3446003
5	0x3e50fd95	0.20409234
6	0xbc002634	-0.007821608
7	0x3e6465c6	0.22304448
8	0x3d5f7426	0.054554127
9	0x3ea5e84a	0.32403785
10	0x3eb8c42e	0.36087173
11	0xbdc1514a	-0.09439333
12	0x3e4c16d0	0.19930577
13	0xbed8a012	-0.42309624
14	0xbddf4575	-0.1090192
15	0x3e8b4a20	0.2720499
16	0xbe61b800	-0.22042847
17	0xbc577a8f	-0.013151779
18	0x3e89890d	0.26862374
19	0x3e36d99b	0.17856447
20	0xbe0800c3	-0.1328154
21	0x3e52ea80	0.20597267
22	0xbdcfac2e	-0.101402625
23	0xbecdde14	-0.40208495
24	0x3db0f96e	0.08641325
25	0x3e4b5a9b	0.19858782
26	0xbe6eca01	-0.23319246
27	0xbccd530c	-0.025064014
28	0xbd3cd705	-0.046103496
29	0xbd55ee99	-0.052229498
30	0xbe8dc50c	-0.27689397
31	0xbe629590	-0.22127366
32	0xbe4304cd	-0.190448
33	0xbe649fcb	-0.22326581
34	0x3df84456	0.12122409
35	0x3dd0db71	0.10198105
36	0xbf04ecd7	-0.5192389
37	0x3d1c2de1	0.03812969
38	0x3dea010c	0.11425981
39	0x3ea1422b	0.31495795
40	0xbe30d295	-0.1726783
41	0xbe61b66e	-0.22042248
42	0xbdf2cc7d	-0.11855409
43	0xbe8849f5	-0.26618925
44	0x3e5c6214	0.21521789
45	0x3e910ef8	0.28331733
46	0xbdeb802c	-0.11499056
47	0x3e151645	0.14559276
48	0xbe70f89d	-0.23532338
49	0x3ebe3f79	0.371578
50	0xbea604d1	-0.3242555
51	0xbd78b255	-0.060716946
52	0xbe812ff6	-0.25231904
53	0xbe4f286d	-0.20230265
54	0xbdf9319c	-0.12167665
55	0xbe1f19ec	-0.15537232
56	0x3de81f65	0.11334113
57	0x3e94dfbb	0.29076943
58	0xbedadbba	-0.42745763
59	0xbe31f49e	-0.1737847
60	0xbe89ae2e	-0.268907
61	0x3d9be716	0.076124355
62	0x3d87f77b	0.06639
63	0xbe96247d	-0.29324713
64	0x3e93a075	0.28833356
65	0x3ede593d	0.43427458
66	0xbcb5d3d6	-0.022195738
67	0x3eb377dd	0.35052386
68	0x3d3e85bd	0.04651426
69	0x3e973859	0.29535177
70	0x3f149fdc	0.58056426
71	0xbf03b488	-0.51447344
72	0xbcc4a549	-0.024004595
73	0x3e08799f	0.13327645
74	0xbed68856	-0.4190089
75	0xbe46b371	-0.19404389
76	0x3d9e95ac	0.077433914
77	0xbefacb9f	-0.48983476
78	0xbf948676	-1.1603534
79	0xbe34e614	-0.17665893
80	0x3e69ba4d	0.22824974
81	0xbd7e2ca6	-0.0620543
82	0xbe304d20	-0.17216921
83	0x3d988b90	0.074484944
84	0x3e81ef6a	0.2537797
85	0x3cfe58c4	0.031048186
86	0xbc82bb89	-0.015958564
87	0xbea28622	-0.3174296
88	0x3e945ae1	0.28975585
89	0x3dab0ede	0.08352445
90	0xbed13a6c	-0.40864885
91	0xbf059705	-0.5218356
92	0xbe6702e1	-0.22559692
93	0xbed88644	-0.42289937
94	0x3e716b76	0.2357615
95	0x3ed2a4d9	0.41141394
96	0x3dfabf29	0.12243492
97	0x3ed7743d	0.4208087
98	0xbdaa13fc	-0.08304593
99	0x3d5eb928	0.054375798
100	0xbcccbe5b	-0.024993112
101	0x3e8ec138	0.2788179
102	0x3da444ef	0.080209605
103	0x3f24b13f	0.64332956
104	0xbea79a0c	-0.32734716
105	0xbdf87dc2	-0.121333614
106	0xbe3b68c2	-0.1830168
107	0x3e9e2597	0.30888054
108	0xbf0087be	-0.50207126
109	0x3c578494	0.013154168
110	0xbfb7d7fa	-1.4362786
111	0xbef236eb	-0.47307524
112	0xbf56e34e	-0.8394059
113	0xbfbc146a	-1.469373
114	0x3f616c51	0.880559
115	0x3e312dd6	0.17302641
116	0xbf90d17d	-1.1313931
117	0xbdb5ba64	-0.08873442
118	0xbefb5946	-0.49091548
119	0x3f9e8f2c	1.2387443
120	0xbc7861a8	-0.015160002
121	0xbe039d4e	-0.12852976
122	0xbe1f3b06	-0.1554986
123	0xbe1bc8f0	-0.1521337
124	0x3ea6154a	0.32438117
125	0x3e8bad00	0.27280426
126	0xbef24ff9	-0.4732664
127	0x3f4b6e33	0.79465026
128	0x3d6243e7	0.055240538
129	0x3d69ee7c	0.057112202
130	0x3e9eba77	0.31001636
131	0x3f7a99b9	0.9789081
132	0xbf06d499	-0.5266815
133	0x3d83d8a7	0.064378075
134	0x3ef85d89	0.48508862
135	0x3f990c94	1.1956964
136	0xbef3732f	-0.47548816
137	0x3fdd961c	1.7311435
138	0x3e566887	0.20938312
139	0x3f9437ab	1.1579489
140	0xbf4703cb	-0.7774016
141	0x3f8d0f00	1.1020203
142	0xbd93b98c	-0.07213125
143	0x3e1ed30b	0.15510194
144	0x3e870f35	0.2637879
145	0x3ee52280	0.44752884
146	0xbe2857f8	-0.16439807
147	0x3f712037	0.9418978
148	0x3e790f55	0.24322255
149	0x3f1d9214	0.6155102
150	0x3de73b7b	0.11290642
151	0xbe7b925c	-0.2456755
152	0xbe19e718	-0.15029562
153	0x3e6ff241	0.23432256
154	0xbdab70a3	-0.08371093
155	0x3f1544f4	0.5830834
156	0xbe614ba8	-0.22001517
157	0x3f4230b3	0.7585556
158	0xbf04c315	-0.5186017
159	0x3dafe5bc	0.0858874
160	0xbec49717	-0.38396522
161	0x3e16acb3	0.14714317
162	0xbf50337e	-0.8132857
163	0x3e1e545a	0.15461865
164	0xbe11deb7	-0.14245115
165	0x3f8c01b8	1.0938025
166	0xbf203481	-0.62580115
167	0x3f925487	1.1432046
168	0xbe6aa832	-0.22915724
169	0x3f43b089	0.76441246
170	0x3ebd312d	0.3695158
171	0x3e9c1927	0.3048794
172	0x3eddaedd	0.43297473
173	0x3e7994fe	0.24373242
174	0x3c93b99c	0.018032841
175	0x3de37fdf	0.11108374
176	0x3c92727f	0.017876862
177	0x3ecbd08b	0.39807543
178	0x3efa5e00	0.4889984
179	0xbe82e0b8	-0.25562072
180	0xbd28540a	-0.04109577
181	0xbc417db7	-0.011809758
182	0xbea651dc	-0.3248433
183	0x3ca4292e	0.020039167
184	0x3e2b7dad	0.1674716
185	0x3d199606	0.03749659
186	0xbe074a38	-0.13211906
187	0x3f1f2f1e	0.6218127
188	0x3e092d01	0.13396074
189	0x3eb37c65	0.35055843
190	0xbdb42fcc	-0.08798179
191	0x3fba3b29	1.4549304
192	0xbfa835b1	-1.3141385
193	0x3efd0905	0.49420944
194	0x3f3901f0	0.7226858
195	0x400ebc8f	2.2302587
196	0xbec84d03	-0.39121255
197	0x3fdab844	1.7087483
198	0x3e9400bb	0.28906807
199	0x3f8251c6	1.0181205
200	0x3e378b20	0.17924166
201	0xbeaa7610	-0.332932
202	0x3e1b4be5	0.1516567
203	0x3da31e12	0.0796472
204	0xbdba1b2e	-0.09087215
205	0xbe0891fe	-0.13336942
206	0x3d5ec5cc	0.054387853
207	0xbea0f0c9	-0.31433704
208	0xbef2ca67	-0.47420046
209	0xbe8c4c26	-0.27401847
210	0xbec5bbaa	-0.3861974
211	0xbdd75ecd	-0.10516129
212	0xbe8396d4	-0.2570101
213	0xbee441c0	-0.44581413
214	0x3e8eda1d	0.27900782
215	0xbdda3f15	-0.10656563
216	0xbe8c5a84	-0.27412808
217	0x3d8bf808	0.068344176
218	0x3f02d22e	0.5110196
219	0x3e087a71	0.13327958
220	0xbec1987e	-0.37811655
221	0x3d0ed859	0.034874294
222	0xbec52ce8	-0.38510823
223	0xbdd0ed88	-0.102015555
224	0xbe0539d7	-0.13010345
225	0xbd6c63a8	-0.057712227
226	0x3bf1a9d0	0.0073749796
227	0x3ebeacb0	0.37241125
228	0xbeab7627	-0.3348858
229	0x3e234d98	0.15947568
230	0x3e504502	0.20338824
231	0x3d7190a3	0.058975827
232	0xbe42c2a3	-0.1901956
233	0xbc2f2281	-0.010689379
234	0x3e18b5df	0.14913128
235	0xbd86099d	-0.06544802
236	0xbe1fdcb0	-0.1561153
237	0x3e491517	0.19636951
238	0xbee80bcc	-0.453215
239	0xbdd9b453	-0.10630097
240	0x3e358641	0.17726995
241	0xbdb721c2	-0.08941986
242	0x3e99dcf7	0.30051395
243	0xbe2eca5c	-0.17069381
244	0xbe47bd9d	-0.19505925
245	0xbe1e4399	-0.15455474
246	0xbe44eedf	-0.19231747
247	0x3d590fd1	0.0529936
248	0x3e955256	0.2916438
249	0x3cfe37db	0.031032493
250	0xbc87d321	-0.016580166
251	0x3d98e1a7	0.07464915
252	0xbd8e6966	-0.06953697
253	0xbe1d5421	-0.15364124
254	0x3e4cb786	0.19991884
255	0xbd258184	-0.04040672

rnn1.bias_ih_l0 f4 [30]
0	0x3e839df3	0.25706443
1	0x3f9828b3	1.188742
2	0x3eac3756	0.33635968
3	0xbe34affb	-0.17645256
4	0x3e3dbc57	0.18528877
5	0x3e3b3fc3	0.18286042
6	0xbb091d24	-0.002092191
7	0x3ea32c55	0.3186976
8	0x3d594272	0.053041883
9	0x3e89df32	0.26928097
10	0xbf309505	-0.68977386
11	0x3e474277	0.19458948
12	0x3e47b93a	0.19504252
13	0xbeda694d	-0.42658463
14	0x3e6fc098	0.23413312
15	0xbe817e10	-0.2529149
16	0x3e8367d6	0.25665158
17	0x3dd96f9f	0.10616993
18	0x3e59e05e	0.21276996
19	0x3ee0225a	0.43776208
20	0x3d8f2574	0.069895655
21	0xbf1e9a05	-0.61953765
22	0xbbee7ffc	-0.0072784405
23	0x3de3a70a	0.111158445
24	0xbe4181b0	-0.18897128
25	0xbe1e1025	-0.15435846
26	0xbe356c46	-0.17717084
27	0xbe8e7ea2	-0.27830988
28	0x3d915336	0.07095949
29	0xbe263d2c	-0.16234273

rnn1.bias_hh_l0 f4 [30]
0	0xbdd1a694	-0.102368504
1	0x3f4cf438	0.8006015
2	0xbd713da8	-0.05889669
3	0x3d9616ae	0.073285446
4	0xbcc1bae6	-0.02364869
5	0xbea576a9	-0.32317093
6	0xbdad3e18	-0.08459109
7	0x3ea15924	0.3151332
8	0x3ebd1960	0.36933422
9	0x3e0fbafe	0.14036176
10	0xbf1338bf	-0.5750846
11	0x3e07d587	0.13265048
12	0x3f3b4acf	0.73161024
13	0xbd14c8b0	-0.036324203
14	0x3cba8617	0.022769017
15	0xbee7cc40	-0.45273018
16	0xbda8973c	-0.08231971
17	0x3ea82fa5	0.3284885
18	0x3e8b8fda	0.27258188
19	0x3df99262	0.121861234
20	0x3ea89ad1	0.32930616
21	0xbf69e70b	-0.9136817
22	0xbe556b88	-0.20841801
23	0xbe8fc679	-0.2808111
24	0x3e845a73	0.25850257
25	0x3ea0a02f	0.3137221
26	0x3e9188ec	0.28424776
27	0xbeeae6d0	-0.4587922
28	0xbec95776	-0.3932454
29	0x3e5ce390	0.21571183

lc2.weight f4 [1, 10]
0	0x3f4022c4	0.7505305
1	0x3f914436	1.1348941
2	0x3f4b3f0b	0.7939307
3	0x3f53e641	0.82773215
4	0xbf5782e6	-0.8418411
5	0xbf38c5d3	-0.72176856
6	0x3f39d8d9	0.7259651
7	0xbf4dda76	-0.8041147
8	0x3fa32830	1.2746639
9	0xbf143cdb	-0.5790536
