basis_net/causual/CauNet.pth (torch, 1695 bytes, 3 tensors)

conv1.weight f4 [2, 2, 2]
0	0x3e9d3f4c	0.30712354
1	0xbd57a81b	-0.052650552
2	0x3e7e2637	0.24819265
3	0x3f65bce1	0.8974133
4	0x3e19acd5	0.15007336
5	0x3f2e243f	0.6802406
6	0x3ea52e39	0.32261828
7	0x3f9c4ae1	1.2210351

conv1.bias f4 [2]
0	0x3c4ccb30	0.012499616
1	0xbd5cbdef	-0.053892072

lc1.weight f4 [1, 18]
0	0xbb0beda5	-0.0021351364
1	0x3a090fec	0.0005228508
2	0x3bd0f9f6	0.006377454
3	0x3c9e803e	0.01934826
4	0x3d8a9e37	0.06768458
5	0x3e39e88c	0.18155116
6	0x3f1c99d8	0.61172247
7	0xbe8c3dd8	-0.27390933
8	0x3f85a0f8	1.0439749
9	0xbb459f8f	-0.0030154919
10	0xbba8050c	-0.0051275548
11	0xbbd449ff	-0.0064785476
12	0xbcf976c4	-0.03045214
13	0xbc9611eb	-0.01831909
14	0xbe91c6c2	-0.28471953
15	0x3d950f1a	0.07278271
16	0x3ed31720	0.4122858
17	0x3fef6667	1.8703126
