basis_net/vad_demo1/Vad1Net_28_1.pth (torch, 21007 bytes, 7 tensors)

lc1.weight f4 [24, 42]
00000000: 4370 4cbc da59 0cbe 3239 a0bd 48bd 573d
00000010: 123e 06bd 04e2 6fbc 6187 973e 17be 123e
00000020: 8527 64bd 9add aa3e 60df 553e 10f0 813e
00000030: fb0e 8c3e 9d5a f83e 576f 4f3e 605d b13e
00000040: ff65 64bd 6c4a a13e f6fb 82bd ea10 84bd
00000050: 5631 483e 5d88 b43d ba97 1dbe b63a 04bf
00000060: ce02 3bbf 1c2c 313e b013 7abe 9ac8 c5be
00000070: ce22 ac3e 95b4 be3c f11f f5be bcd7 3bbd
00000080: 1608 7bbe 6516 843d 5862 0abf df26 6abe
00000090: c46c 83be 3a56 b9be 4831 92bd 5a5e d23d
000000a0: a6f5 52bc b264 613e 0732 5c3c 9c0e 183d
000000b0: 982e e73c 18e2 45bd 9f37 203d 3993 73ba
000000c0: db83 da3d f323 283d 063d 1cbe 1f60 5c3e
000000d0: 54a5 2d3e 3765 35be 609a 98be eab4 12bf
000000e0: 8cdb c9be 834e eebe 9d07 00be 4429 03bf
000000f0: a06a dbbe dc14 bcbd 737b 5a3b 9ec1 9e3d
00000100: b368 bfbe 5027 aabe 104b 283c 2901 bbbe
00000110: 3742 86be f779 7dbe 1c5a 92be 7cb0 ac3d
00000120: f2b5 9f3d 7550 38be 8112 e13d 6e97 8f3e
00000130: 73ac 9dbd 1770 f13d 177e 2d3d 15df a5be
00000140: b061 f43d 02d2 d63c 7e29 caba 9726 613d
00000150: 5902 4a3c b94c 913b b552 023d 9dd3 933d
00000160: f122 b03c 1253 bebd f2b7 bdbd 221d d1bd
00000170: 8b91 8dbe 750d 39be 7c9c d7bd af7b b63e
00000180: 9e7a a23e fbde f13d d47b d43d a92b 20be
00000190: 2a3c a43e a726 83bd 15dc c53e b8c0 483e
000001a0: 149a 30bc abf5 23be 0fdc 223e 3a4f 97bc
000001b0: b93a 1abe 017c 023f be1e 1abe 76c0 573e
000001c0: c212 843e fd75 c53d e160 8f3d 0ea4 213f
000001d0: 600a 19be 979b a6bc dd93 d63d cda4 46bd
000001e0: 858b c6bc ef25 1cbd 88bb b23d 0e37 51bd
000001f0: 5794 303e 8041 503d 354a 91bb 3bdf 17bd
00000200: 6237 babb 51bb ca3d dbb5 6c3d c161 79bd
00000210: eeee 3ebe 53cc 623e 04f3 48be f784 83be
00000220: 0720 6fbd 960d 683d cafc 18be b262 983e
00000230: acc1 053e ab68 efbd 4892 e93d e1ac 0abf
00000240: 22da 843e 1592 073e 000b d2bc 27b3 02bf
00000250: 2b22 55bf d087 43bf d95b d83e 5d89 6b3e
00000260: 273e a5be 9deb cd3e 5539 b2bd 0464 be3e
00000270: 7e67 a7bc bd0b 86be a3bf 663e 9ec0 d937
00000280: 302c 833e 4f4c 453e fb7e 25be cbb2 f6bd
00000290: 80e1 273d b3ec 9ebe 7d7e 39be 6e8b 2ebe
000002a0: f67f d03b 9e07 b8bc f09d 423d 16e7 80bc
000002b0: b4c3 523e 132e f03d db42 4f3f 617d 1a3e
000002c0: 3e7c 613f 3135 143f e504 1a3e 5e08 0d3f
000002d0: 5db2 aabd 1025 3e3e f44f c93d 16c3 acbe
000002e0: 744c dcbe a608 12bf e927 60bf 508a 49bf
000002f0: d099 6fbf e77d ad3e 4794 dcbc 8f6d 1fbe
00000300: 7214 1d3e 79c2 86be 5252 e53e 2692 afbe
00000310: bb0c 87bd 536e dfbd 1aa9 523d 39b7 aebd
00000320: de05 f9bb ae17 453e a17d 00be 5712 52bd
00000330: 7ca5 773d 6692 623d 4e6c 763d 987d 0f3b
00000340: 2dda 23be 4d7a 183e f2d1 443b 8223 173b
00000350: b2e5 203d 5d3e eb3c ea28 0abd eda7 febc
00000360: 67af 8c3d 170f d63c 8926 2f3e 9dd5 393e
00000370: 048a 8fbd 8e9e 97bc a06d 8c3e 155b 2e3e
00000380: 8ebf e2bc 0ac8 ad3d 17ea 3dbe 98b1 56bb
00000390: 3cfb 4a3e 2626 f63d 0302 c0bc 7de9 9a3d
000003a0: a95b c0bf 9563 4cbf b3bb 053f 491e 21be
000003b0: bddf 9dbe b1c8 71be 5e73 123f 3c18 01bf
000003c0: bfab 3bbe e5d0 9c3d 670f 1b3d be37 a7bd
000003d0: 319f f4bc 1c47 913d 8dbf cb3d 71f5 6d3e
000003e0: a737 d63c 66ea b03e 2361 6e3d d000 edbd
000003f0: 081d 603c c496 f139 fc98 3e3c 919a b7bd
-0.012477937 -0.1370615 -0.07823409 0.052670747 -0.03277404 -0.014641289 0.29595473 0.14330326
-0.05570175 0.33372194 0.20885992 0.25378466 0.2735518 0.48506632 0.20257317 0.34641552
-0.055761334 0.31502092 -0.06395714 -0.064485386 0.1955007 0.08815072 -0.1538991 -0.51652086
-0.73051155 0.17301983 -0.24421573 -0.3862961 0.33620304 0.023279468 -0.47875932 -0.045860037
-0.24514803 0.06449584 -0.5405631 -0.2286639 -0.2566892 -0.36198598 -0.07138306 0.102719024
-0.01287595 0.22011068 0.013439662 0.037123308 0.02822046 -0.048311323 0.039115544 -0.0009291652
0.10669681 0.04104991 -0.15257654 0.21521042 0.16957599 -0.17714392 -0.2980528 -0.573073
-0.39425313 -0.46544275 -0.12502904 -0.5123484 -0.42854786 -0.09183666 0.0033337742 0.07751773
-0.37384567 -0.33233118 0.010271803 -0.36524323 -0.26222393 -0.24753557 -0.28584373 0.08432099
0.07798375 -0.17999442 0.109898575 0.2804522 -0.07698908 0.117889576 0.042356577 -0.3239676
0.11932695 0.026223186 -0.0015423743 0.054968443 0.012329661 0.004434195 0.031817157 0.072180964
0.021501036 -0.09293188 -0.092636004 -0.10210635 -0.27650103 -0.1807154 -0.10527894 0.35641238
0.31734174 0.11810108 0.10375181 -0.15641655 0.32077152 -0.06403857 0.38644472 0.19604766
-0.010778923 -0.16011684 0.15904258 -0.018470395 -0.15061463 0.50970465 -0.1505079 0.21069512
0.2579556 0.09641645 0.070009 0.6314095 -0.14945364 -0.020337863 0.104774214 -0.04849701
-0.02423645 -0.038122114 0.08727175 -0.051077895 0.17244087 0.050843716 -0.004433895 -0.037078124
-0.0056828717 0.09899009 0.05779062 -0.06088424 -0.18645832 0.22148256 -0.19623953 -0.25687382
-0.058380153 0.05665358 -0.14940181 0.297628 0.13062161 -0.11689886 0.11404854 -0.5417004
0.25947672 0.1323932 -0.02564001 -0.51054615 -0.8325526 -0.7637911 0.42257574 0.23001619
-0.3227398 0.4021882 -0.087023415 0.3718568 -0.020435091 -0.2618083 0.22534041 2.595811e-05
0.2561965 0.1926739 -0.1616172 -0.12045821 0.040986538 -0.31039962 -0.18114658 -0.17045376
0.0063629104 -0.02246457 0.047513902 -0.01573519 0.20582467 0.11727538 0.8096139 0.15086891
0.88080204 0.57893664 0.1504093 0.5509089 -0.08334801 0.18568826 0.09829703 -0.3374259
-0.4302708 -0.57044446 -0.875609 -0.78726673 -0.93594074 0.33885118 -0.026926173 -0.15569137
0.1533983 -0.26320246 0.44789368 -0.3429119 -0.06594225 -0.109097145 0.0514308 -0.08531041
-0.0075995764 0.19247314 -0.12547924 -0.05128702 0.060460553 0.055315398 0.06016188 0.0021894928
-0.16001196 0.14890404 0.0030032364 0.0023061936 0.039281555 0.02871626 -0.033730425 -0.031085933
0.06869393 0.026130242 0.17104544 0.18147893 -0.07008746 -0.018508222 0.27427387 0.17026933
-0.027679231 0.0848542 -0.1854633 -0.0032759663 0.19822401 0.12018995 -0.02343846 0.075640656
-1.5027972 -0.7983945 0.5223953 -0.15734209 -0.3083476 -0.23611714 0.57207286 -0.50427604
-0.18327235 0.07657031 0.037856486 -0.08164929 -0.029861065 0.07093641 0.09948645 0.2323816
0.026149584 0.34553832 0.058198106 -0.115724206 0.013678797 0.0004607943 0.011633154 -0.08965028

lc1.bias f4 [24]
00000000: 7063 073d 5d3b a6be 8adf 80be f9b0 8c3d
00000010: 63fb b6bb 47b1 43bd a8a6 ff3d ef01 6fbe
00000020: a4c5 b13e 2a99 5e3d ee80 a5bd d0db 41be
00000030: 02b4 0b3d 2298 94bd 1cc5 e53d bf16 aebe
00000040: 9220 2ebd 9495 1ebe 9943 0fbe eb48 e13d
00000050: 51b2 46be 7a08 063f f3d0 9c3e a4a3 0b3e
0.033053815 -0.32467166 -0.25170547 0.06869692 -0.005584167 -0.047776487 0.12482959 -0.23340581
0.347211 0.054345287 -0.08081232 -0.18931508 0.034107216 -0.072555795 0.11219236 -0.3400173
-0.04251153 -0.15486747 -0.1399063 0.11000236 -0.1940396 0.52356684 0.30628166 0.13636643

rnn1.weight_ih_l0 f4 [72, 24]
00000000: 2cf0 923d fad2 29be 3508 bdbd ddfc 15be
00000010: 0c45 93be 7789 61be 8eb4 f63d 274f 9f3e
00000020: 1f8d 2f3d ab8f 0f3e 3d8a 04bf 7428 27be
00000030: 1771 5e3e 2003 c43e 84d0 993d 0323 4abd
00000040: e7e2 ebbd cbd9 50be e991 23bd e960 8a3d
00000050: 38e3 69bd e581 c03e dd79 e93d b7da 96bc
00000060: 7c61 af3e 68bd 15bf 0b88 22bd de91 9cbd
00000070: 13a7 813c 8624 2fbf ed87 b1bd 67dc cdbe
00000080: 1f6a e73e aeec 823d 5a4c 563e 604a d7bd
00000090: 3469 ba3d 6da2 29be a267 f2be 08bf 063f
000000a0: cfba ebbd 676c a8be bb26 393e 7f79 90bd
000000b0: fab5 ae3d 2223 f6bd 5885 183e 59da 403c
000000c0: ce3c b5bc 9eb9 63be e99b 48be c2b1 903e
000000d0: b637 a33b 908a 1a3c edd5 af3c 7bf4 343e
000000e0: f2b3 39bc 4bb6 073f 8fca 5bbe e9a8 293e
000000f0: 2e53 24bd ab54 36be be55 203d f095 323e
00000100: d7b1 823c e2cb 40be 3369 823e b707 fe3c
00000110: 3428 d4bd 826f a73e 9e6b 853d 7f41 09bd
00000120: a021 0f3e 45d7 28be 09bb b1bd 3c21 91bd
00000130: ebb8 80be 0e51 08bf 85f3 83be 7821 09be
00000140: fa18 9e3e 2a5d 1c3e 0b1d 933e 34cf f8bd
00000150: 74f3 f33a f18a 99be 30ac 10be da21 34be
00000160: d013 f0bd 8adf 8bbe 35b4 22be 8334 bd3e
00000170: 55cd bcbd ca56 1bbe 0498 ecbd fdc5 213c
00000180: e509 be3e ebe6 54be 2354 643d 8002 7a3e
00000190: 8524 60be 305d 13bd 9c34 4b3e 45a2 82bd
000001a0: 3d3c 8ebd fcc0 be3e fb0a b7be e9d6 61bd
000001b0: 7499 ab3e ecc8 843e c509 0dbf cfd0 88be
000001c0: c473 2f3e f275 aebd c86d c83e 52a3 53be
000001d0: e92b a73d 7dde 4ebe c472 af3e d230 42be
000001e0: ccec b13e 0e6e a2bd 23af 1cbf 9e46 583e
000001f0: 8cf3 7f3e e622 323e e0c2 e13e 22a2 bebe
00000200: d6b8 ccbd a1ee e1bd 7b0d 33bf 6b93 febe
00000210: fc04 9bbd 71f1 7e3e 2165 35be 4819 b1be
00000220: 0eaa a43c 3775 91be 8267 52be dd54 a13e
00000230: 8a3b cebc 64a9 7c3e 1456 7d3e e475 7c3e
00000240: 5763 4bbe a79a 6fbe 40bc a2be 29a6 b13e
00000250: 94c3 4b3d b647 e93d 434f f5bd 9b76 b33e
00000260: 7c62 513d 0393 eb3c 524c 2cbf f5d5 613d
00000270: 28ac e2bd a59d 02bd da49 053f b0c8 bcbe
00000280: 562b c5be e63f 17be 3e00 a53e 85b6 ad3e
00000290: 9048 56be 9a5a 843e 4ec7 4ebe 1b23 03be
000002a0: 8b27 9d3e 1961 23be 4b89 1e3e 2cd8 483f
000002b0: 4dca d1be 53a2 d73e b6a6 df3e caa2 d13e
000002c0: 1c72 a33e aba3 7bbe 1405 b9be 0013 86be
000002d0: 177a 573e 0d5b dd3d 590c 2a3e 296d 97bd
000002e0: 1835 46be ff83 1e3e 0010 e5be d6ee afbe
000002f0: 5ffa 9bbd 43f3 793d bb3a 3b3d e871 173e
00000300: 86f4 c5bc 6a80 983d 97cd 4b3d fd94 bfbd
00000310: a160 523e ceb2 2ebf 6dcd 85bd ea56 c1be
00000320: b935 5a3e fb55 0f3e 3e45 9e3e 92d2 803e
00000330: e124 57bd 6cec 8dbe 0d57 acbd a83c a33e
00000340: dc78 5eba 66cb d23d 4228 ec3d 3f06 ecbc
00000350: 4c4e 1f3e ce55 603d 88cd 1f3d 51da 9b3d
00000360: 2b57 d13e fe69 d6bd c14a a83e 36c2 ab3e
00000370: 84a8 48be 5c98 89be d3dd 2c3f 9d19 023f
00000380: dd18 683f b120 5d3d 169a 9cbe 57ed c7be
00000390: 37e8 0c3d ab66 f33e 21e4 a43e 4ddb bfbe
000003a0: 5137 e43e 534f bcbe 4165 49bf 7cce 2bbe
000003b0: 2b89 ef3e 2a69 b43c 774b d53d 1fe7 123d
000003c0: cf84 87be e7a1 a2be e448 4cbe e130 f73e
000003d0: 94e9 babe 5828 12be 32ed c5bd 3b96 863e
000003e0: f840 e33e 5b5d b33e c8bf ecbc 2a2c 4e3b
000003f0: 5013 8e3d 3874 93bd ae71 383e dbff ce3c
0.071747154 -0.16584387 -0.09230081 -0.14647241 -0.28763616 -0.22025095 0.12046157 0.31115076
0.042859193 0.14019649 -0.51773435 -0.16324025 0.21722828 0.38283634 0.07510474 -0.049349796
-0.115178876 -0.20395581 -0.039934073 0.067567654 -0.05710146 0.37599102 0.11400197 -0.018414838
0.34254062 -0.58492136 -0.039680522 -0.076450095 0.015826738 -0.68415105 -0.08668504 -0.40207216
0.4519815 0.06392799 0.20927563 -0.10512233 0.09102097 -0.16565867 -0.4734469 0.5263524
-0.1151024 -0.32895204 0.18081181 -0.070544235 0.08530803 -0.1201842 0.14894617 0.011770808
-0.02212372 -0.22238776 -0.19590725 0.28260618 0.0049810065 0.00943245 0.021464312 0.17671387
-0.011334406 0.5301253 -0.21463989 0.1656834 -0.04011839 -0.17805736 0.03914427 0.17440009
0.015953941 -0.18827775 0.25470886 0.031009538 -0.10359231 0.3270226 0.06514667 -0.033509728
0.1397767 -0.16488369 -0.08678252 -0.07086417 -0.2514108 -0.5324868 -0.25771728 -0.13391674
0.3087843 0.15269914 0.28733096 -0.12148896 0.0018611983 -0.29988816 -0.14128184 -0.17591038
-0.11722529 -0.27318984 -0.15889056 0.36954126 -0.092188515 -0.15169826 -0.11552432 0.009873864
0.37116924 -0.20791213 0.0557443 0.24415016 -0.21888931 -0.035977542 0.19844288 -0.06378607
-0.06945083 0.3725661 -0.35750565 -0.055136595 0.33515513 0.2593454 -0.5509303 -0.26721808
0.17134005 -0.0851859 0.39146256 -0.2066777 0.08162672 -0.2020206 0.34267247 -0.18963936
0.34750974 -0.079311475 -0.6120474 0.21120688 0.2499525 0.17396125 0.4409399 -0.37233073
-0.09996192 -0.11031843 -0.69942445 -0.49721846 -0.0756931 0.2489679 -0.17714359 -0.345896
0.02010062 -0.2840974 -0.20547298 0.31510058 -0.025174875 0.24673992 0.24739867 0.24654347
-0.19862114 -0.23398839 -0.31784248 0.34697083 0.049747065 0.11390631 -0.119780086 0.35051426
0.051119313 0.028756624 -0.67303956 0.055135686 -0.110679924 -0.031888623 0.52065814 -0.36871862
-0.38509625 -0.14770469 0.32226747 0.33928314 -0.20926118 0.25850374 -0.20193216 -0.1280636
0.3069423 -0.15955009 0.1548206 0.7845485 -0.40974656 0.4211603 0.43681878 0.4094451
0.31922996 -0.24574153 -0.36136687 -0.2618637 0.21042667 0.10808382 0.16606273 -0.073938675
-0.19356191 0.1548004 -0.4473877 -0.34361905 -0.07616114 0.061023008 0.045710307 0.14789546
-0.02416445 0.07446368 0.049756613 -0.09354589 0.20544674 -0.68241584 -0.065333225 -0.37761623
0.21309556 0.13997643 0.30912203 0.25160652 -0.052525405 -0.27719438 -0.08415041 0.31882215
-0.00084866374 0.102927014 0.11531116 -0.028811572 0.15557212 0.05476933 0.03901437 0.0761
0.40886816 -0.10469435 0.32869533 0.3354661 -0.19595534 -0.26874053 0.67525977 0.5082033
0.9066294 0.053986255 -0.30586308 -0.39048263 0.034401145 0.47539267 0.322053 -0.37472
0.44573453 -0.3677927 -0.78670126 -0.16777986 0.46784338 0.022022802 0.104147844 0.035864946
-0.26468512 -0.31764147 -0.1994968 0.4827948 -0.3650633 -0.14273202 -0.09664382 0.26286492
0.44385505 0.35032162 -0.028900042 0.003145943 0.06937277 -0.07199901 0.18012115 0.025268486

rnn1.weight_hh_l0 f4 [72, 24]
00000000: c7fe 0e3e 4ee4 5a3d 4e30 ccbd 76d4 b43e
00000010: 3ebf 153e 0795 94bd f2d8 19be 19d6 a3bc
00000020: bcfa ebbe c011 a63d 2d0b 0e3e e6b4 f43e
00000030: 14e6 2b3e 7307 b93e 3590 54bc d003 27be
00000040: a6ce 463e dfc3 bb3d dac7 963e 678b 9a3e
00000050: 3275 b6ba 30b5 603e 1af6 5b3e f2ff 963e
00000060: 2f78 2c3e 7ba9 e73e a5ae 21bc 8888 8b3d
00000070: 8b35 57bd 4808 b4bd 8a6c 443e 2963 df3e
00000080: 31c6 e6be 9e6d 66be a176 19be de8e a43d
00000090: 7334 3f3d afe3 a7be ca2e 1b3c d25d 163d
000000a0: 3901 0cbe 85f1 263d 8e1f 6dbe bf08 683e
000000b0: d020 a93e 3a52 40be 690e 8a3d 8733 ddbc
000000c0: 3089 6b3e d168 833e efae 84bd 0605 bf3d
000000d0: 8c97 013e ff32 f43d 6b25 113e 4461 563d
000000e0: 5cb5 64bc 9ae8 3e3e 2230 afbd a1cd c63e
000000f0: 225d 36be 340c b43e a21e 98be 0385 3a3e
00000100: dc9e ba3d 6009 893d 9123 623e 02a5 903e
00000110: c1b6 8a3c c6be 293e 4391 943e ea95 223d
00000120: 394a 0d3e f207 ec3e f62f 5b3d eb0d 9d3e
00000130: f056 0bbe 41ad acbe 99b9 033f 3cde 573e
00000140: 3214 133d 84ee 9abe 24f1 26bd 7d84 22bd
00000150: 26da 0dbd e86b 00be 2d39 94bd f5ec 0abe
00000160: 459a 51be aa5b aa3e ff35 dc3d 2667 debd
00000170: 292a 083d 3d45 f13d 2b66 4c3e f4b2 da3a
00000180: f615 a03e 631e 103e 5adc 9b3b cc6a 9d3e
00000190: 1850 98be 8154 a33d d661 7d3e ecd6 623e
000001a0: 349c 8dbd e6a6 d33e 09c6 2a3e 4ef4 12be
000001b0: 2cd1 eb3c 20be 873d fdbf fbbd 1f92 86ba
000001c0: a70e 633c 6ffd 9dbb 0b15 783e 9199 883d
000001d0: 627e ca3d 97cc a63e 0f03 b73e 017b ad3e
000001e0: 1b4f 783d 2555 7d3e 9056 5cbe 2f5a c13e
000001f0: 4603 96be 305c 35be c470 933e ee93 6e3e
00000200: 2095 8abe d0c1 6d3d 424d 7f3e 2e27 59be
00000210: bb26 cc3e 2bbd 02bd ca4a 7bbd 2df5 21bc
00000220: 7a65 293d 179f 003e 1e76 4abe e3ea 893e
00000230: 9e92 733e 819a c03e d48c 1c3f 87ba fcbc
00000240: d724 d9bb d685 253f dca7 603c d7ae 653e
00000250: e6cc 243e b4a2 2dbe 5537 703e 6b16 d03d
00000260: 8fa3 82be 0ec0 6d3e 7ba4 f33e c6d5 9f3e
00000270: ed36 7b3e 3605 053d 3e30 fd3d bb26 673e
00000280: 4c22 ae3e 1b36 2e3d 0824 c4bd 6cd7 e93d
00000290: f9b8 8d3e 8ba3 a43e 52ce 383e 5a8b 603e
000002a0: 221c 46be e222 17be 590a 29bf 16e3 d53d
000002b0: 77ed 97be bd72 303f e4b5 acbe 401e 1fbd
000002c0: d74f e0bb 7692 013e 9dc3 313f 3579 4d3e
000002d0: 9f6a 8d3e 4421 7a3e 5343 8f3e ae5b 4e3d
000002e0: 6edc 86bd 08ea b8bc 5338 943e da81 8dbe
000002f0: 1a2e 51be 0c61 8a3e 42fb 183f 2bd1 ed3e
00000300: 40b6 a53e 4ce5 983e 48f9 1abe 9330 303e
00000310: 5c78 7fbe 8734 06be 9900 c93e 39bc f93d
00000320: 0974 98bb f69c 46be 5758 b6be e985 a13e
00000330: a8ff e13c 66b0 123e 26d6 323d f842 97be
00000340: cbdf 0cbe 29e2 283e f432 193e 61ea eb3d
00000350: 16ff 97bd e155 60bd 481d 8f3e b3cd b1bb
00000360: 8a42 f03c 628d 083e 2789 f9bd 91c5 043e
00000370: 68b5 bebe 226c 9dbd 43af 033f 985b c43e
00000380: 4a2a 4cbe c287 eabe 0c54 b53d 9e62 763e
00000390: 8673 56be d97a 9b3e ee56 2abe 756b 93be
000003a0: effa dabd 4af6 02bd 2b4f f5bd 918f 083f
000003b0: a85d bebc 7e18 943e da3b cc3e a2b0 e93e
000003c0: ef2c febd 3825 813e 3fd8 d63b bc9d b9bd
000003d0: 94d7 e6bd 456d 4dbe 9ffd 0b3f 2eae c03e
000003e0: 131a 9ebe e59d 1c3f 9812 303e 5283 eb3e
000003f0: 19c5 63bc 8356 9f3e a255 6abe 704b 12be
0.13964377 0.053440385 -0.09970151 0.35318345 0.14623734 -0.07254987 -0.15024164 -0.01999955
-0.46089733 0.08108854 0.1387145 0.47794265 0.16786987 0.36138496 -0.012973835 -0.16310048
0.19414768 0.09168219 0.2944935 0.3018448 -0.0013920425 0.21944118 0.21480599 0.29492146
0.16842721 0.4524649 -0.009868299 0.06813151 -0.052541297 -0.08790642 0.1918203 0.4363034
-0.45073083 -0.22502753 -0.1498666 0.08035062 0.04668088 -0.32790896 0.009471605 0.036710568
-0.13672341 0.040757675 -0.23156568 0.22659586 0.33032846 -0.18781367 0.0674103 -0.02700211
0.23001552 0.25665906 -0.064786784 0.0932713 0.12655467 0.11923789 0.1417443 0.052338853
-0.013959255 0.18643418 -0.085541025 0.38828757 -0.17808965 0.3516556 -0.2971087 0.18214802
0.09112331 0.06691241 0.2208388 0.2825089 0.016932847 0.1657668 0.29017076 0.03969375
0.13797845 0.46099812 0.053512536 0.3067468 -0.13607383 -0.33725932 0.51455075 0.2108087
0.03590793 -0.30260098 -0.040757313 -0.039677132 -0.03463187 -0.12541163 -0.07237468 -0.13566954
-0.20469005 0.3327306 0.107524864 -0.10859518 0.033243332 0.11780784 0.19960849 0.0016685412
0.31266755 0.14074092 0.0047564926 0.30745542 -0.29748607 0.07975102 0.24744353 0.22152299
-0.06914559 0.4133827 0.16677107 -0.14351007 0.028786264 0.0662806 -0.12292478 -0.0010266936
0.013858474 -0.0048214714 0.24226777 0.066699155 0.09887387 0.32577965 0.3574452 0.33882907
0.060622316 0.24739511 -0.21517396 0.37764117 -0.29299372 -0.17710948 0.2879697 0.23298618
-0.27066898 0.058046162 0.24931815 -0.21206352 0.398733 -0.031918686 -0.06135062 -0.009885115
0.04135654 0.12560688 -0.1977162 0.26937017 0.23786399 0.37617877 0.61152387 -0.030850662
-0.006626706 0.6465734 0.013711896 0.22429977 0.16093788 -0.16956598 0.23458607 0.10160526
-0.2551541 0.23217794 0.47586426 0.31217784 0.24532671 0.032475673 0.12362717 0.22573368
0.3401054 0.042532068 -0.09577185 0.114180416 0.27680185 0.32156023 0.18047455 0.21928158
-0.1934667 -0.147594 -0.66031414 0.10443704 -0.2967336 0.68925077 -0.33732522 -0.038847208
-0.006845455 0.12653527 0.6943911 0.20065768 0.27620408 0.24426752 0.27981052 0.0503804
-0.065850124 -0.022572532 0.28949222 -0.2763813 -0.20427743 0.27027166 0.5975839 0.46448645
0.32365608 0.2986244 -0.15134156 0.1720603 -0.24948257 -0.13105975 0.39258268 0.12194104
-0.0046525043 -0.19395813 -0.35614273 0.31547478 0.027587727 0.14325103 0.04366126 -0.2954328
-0.13757245 0.16492523 0.14960843 0.115193136 -0.07421701 -0.0547694 0.27952027 -0.0054261326
0.029328603 0.13335183 -0.12184363 0.1296599 -0.37247777 -0.0768664 0.51439303 0.3835113
-0.19938007 -0.458067 0.08853921 0.24061057 -0.20942506 0.30367163 -0.16634724 -0.2879292
-0.10692393 -0.03197316 -0.11977991 0.53344065 -0.023238018 0.28924936 0.39889413 0.45642573
-0.12410914 0.25223708 0.0065565403 -0.090632886 -0.11271587 -0.20061214 0.5468387 0.3763289
-0.30879268 0.6117843 0.17194593 0.45998627 -0.013901972 0.3112069 -0.22884229 -0.1428659

rnn1.bias_ih_l0 f4 [72]
00000000: c995 0c3e 581a 7e3e f0b5 a6bc 54ee 123e
00000010: 7ae2 303d 3d4a aa3e dd7f b83d 2adc d13e
00000020: 3fd9 033e 525d fc3e e4c2 bfbd 15c2 6a3e
00000030: 5428 ae3d 3699 473e 6406 f23d 6894 0e3e
00000040: ee4a 3d3e e3e1 0e3d ecb8 563e a04f 173e
00000050: e76b 8f3d 56fb af3e 9cb8 13bd 7490 3a3e
00000060: f664 423e 63f1 5f3d 6ea1 ba3e 61b8 3a3e
00000070: 3a37 09bf 7aa0 813e fd31 4d3e 7eb4 1fbe
00000080: ca8d 633e 1538 1fbf 70b3 02bf c0b2 aa3d
00000090: c6c1 3e3e 5bf6 8e3e 4330 473f 316c f33e
000000a0: 8f8a 963e fc0f 97be d143 6e3e b1a2 093e
000000b0: 3f45 813e d5de 883e a234 2d3f d974 933e
000000c0: c6ad 183e 54e1 673d 22db 843d 1c24 cc3d
000000d0: d0b8 ecbd 58a3 1bbe 545d 523d f060 913e
000000e0: 6739 76be 57c9 10be f6a7 6f3c 3cc9 a53e
000000f0: b662 5c3e bd1a 573c 12cc de3d ce36 8dbe
00000100: 4c6b 993e 0570 8fbd 5962 a3bd f9ee 623e
00000110: 8fcc a0bd e74c c13e b416 813e b8d2 093e
0.13729014 0.24814737 -0.020350426 0.14348727 0.043184735 0.33259764 0.09008763 0.40988284
0.12875842 0.49289948 -0.09363344 0.22925599 0.08503786 0.19492039 0.11817625 0.139238
0.18485615 0.03488339 0.2096898 0.14776468 0.070030026 0.34371442 -0.03606473 0.18219167
0.18983826 0.054673564 0.36451286 0.18234397 -0.53599894 0.25317746 0.200386 -0.15596196
0.22222057 -0.6219495 -0.5105505 0.08334875 0.18628606 0.2792233 0.77808017 0.4754348
0.29402587 -0.29504383 0.23268057 0.13440968 0.25248143 0.26732507 0.67658436 0.28800085
0.1491004 0.056611374 0.06487109 0.09967825 -0.11558688 -0.1519903 0.051358536 0.2839427
-0.24045335 -0.14139305 0.014627447 0.32380092 0.2152203 0.0131289335 0.10878767 -0.27580875
0.29964674 -0.07003788 -0.07977743 0.22161473 -0.078515165 0.37753984 0.25212634 0.13459289

rnn1.bias_hh_l0 f4 [72]
00000000: 0712 993e ee64 9c3e f48b 193e 3d1e 813d
00000010: 7182 1c3d fa88 bf3e 346f 633d c2a7 b33e
00000020: fcc8 a33c 3a64 a13e bdca 653d 741b 9b3e
00000030: 2274 2c3e 5ed6 2cbe bb64 ae3e 0f94 49bd
00000040: fc76 943e d240 883d f3db 5d3e 7f33 adbc
00000050: 3dbc 993e b6be 3c3e bdf3 c5bc 01d1 8cbc
00000060: 222f 863e 3b19 e03d d128 0c3f b49a 953e
00000070: 780a 07bf 68f5 613e d9ec 563d 1dfa 71bd
00000080: 6409 9f3d 0b27 e5be 0ef3 e6be bc5e 733e
00000090: 12d5 7f3e 5d7f 853d 6f3e 833f 3a31 d23e
000000a0: 5372 413e cfa4 34be f598 d33e 4275 413e
000000b0: 85a9 a93e deed 91bc af1d c93e c88d bd3e
000000c0: 9e07 8c3d ac0c 1b3e 5f65 11be 9666 0b3e
000000d0: 5d26 443d 2b75 b53d a50f 543d ddb2 883e
000000e0: 6524 8ebe c38e 003e 96f8 513d f302 433e
000000f0: 9a73 10be fb00 233e 1f56 1bbc 54af c93d
00000100: f2e5 bfbd 2d0e c3bd 1307 79be da1e 003d
00000110: c1a4 dbbd f84e 623e afb5 2b3e 8f56 95bd
0.29896566 0.30545753 0.14994794 0.063045956 0.038210336 0.37409192 0.055525973 0.35088927
0.019993298 0.3152178 0.05610155 0.30294383 0.16841176 -0.1687865 0.34061226 -0.049213465
0.28997028 0.066529885 0.21665935 -0.02114272 0.30026427 0.18432125 -0.024164075 -0.017189505
0.26207834 0.10942312 0.5474978 0.29219592 -0.5275035 0.22066271 0.05247197 -0.059076417
0.07765463 -0.4475635 -0.4510731 0.23766607 0.24983624 0.06518433 1.0253428 0.41053182
0.18891267 -0.17640994 0.41327634 0.18892387 0.33137146 -0.01781362 0.3928046 0.37022233
0.0683739 0.15141553 -0.14198826 0.13613352 0.04788815 0.08860239 0.051772732 0.26698962
-0.27762142 0.1255446 0.05126246 0.19044094 -0.14106598 0.15918343 -0.009480982 0.09847894
-0.093700305 -0.09524188 -0.24319105 0.031279422 -0.10724784 0.22100437 0.16768526 -0.072919

lc2.weight f4 [1, 24]
00000000: 0cfc cdbe a221 273f b410 033f 1261 2a3f
00000010: a734 653f 5b0c 84bf d50a 76bf 95f9 0abf
00000020: 7731 0bbf 2ff5 2d3f 2a39 093f e899 0a3f
00000030: 6455 6d3f f498 493f c7c7 0e3e 4f68 223f
00000040: fd14 b2bd 196e 78bd 5ff8 c3be c583 803f
00000050: d4d7 6f3f d1c3 403f 0e3d 4cbe 223f 293e
-0.4023136 0.65285695 0.5119736 0.6655437 0.89533466 -1.031627 -0.9611028 -0.5428708
-0.5437235 0.67952245 0.5360285 0.5414109 0.9270842 0.7874901 0.13943397 0.6344041
-0.086954094 -0.060651872 -0.3827543 1.0040213 0.936887 0.7529879 -0.19945166 0.1652799
