basis_net/vad_demo1/Vad1Net.pth (torch, 21007 bytes, 7 tensors)

lc1.weight f4 [24, 42]
0	0xbc95977d	-0.018260712
1	0x3d37df9c	0.044890985
2	0x3cb9cc8c	0.022680543
3	0xbd7c3448	-0.061573297
4	0xbe062082	-0.13098338
5	0xbdcfc60c	-0.10145196
6	0x3e0a0b02	0.13480762
7	0xbdeffcf1	-0.117181666
8	0xbcd9746b	-0.02654477
9	0x3d10de8e	0.035368495
10	0x3b206b6c	0.002447809
11	0x3d1fa4b8	0.038975447
12	0x3d683e90	0.05670029
13	0xbb98ed81	-0.0046669845
14	0x3d637c33	0.055538367
15	0x3d467d50	0.04845935
16	0x3d2e76c6	0.04259374
17	0x3e2a2a5a	0.16617718
18	0xbe388fd1	-0.18023612
19	0xbe412056	-0.18859991
20	0xbe59b94c	-0.21262091
21	0x3db9bd34	0.09069291
22	0xbe4ce6c0	-0.20009899
23	0xbe553122	-0.20819524
24	0xbc5445e4	-0.012956116
25	0xbf0ad0f8	-0.5422511
26	0xbe98fe4c	-0.29881513
27	0xbd117b13	-0.035517763
28	0x3ec8fa15	0.39253297
29	0x3e0cc9fb	0.13748924
30	0xbebfdf03	-0.37474832
31	0x3eb9b3ce	0.36269993
32	0xbd213821	-0.03936017
33	0x3ed14d37	0.40879223
34	0xbd762294	-0.06009157
35	0x3ba53586	0.005041781
36	0x390c7f9e	0.00013398982
37	0x3b5fee6d	0.0034169212
38	0xbddcac35	-0.107750334
39	0x3e3cc7c4	0.1843558
40	0xbdc00d0a	-0.09377487
41	0xbd24db90	-0.040248454
42	0x3d2fecaf	0.04295033
43	0x3c855563	0.016276067
44	0x3d65fd0d	0.05614953
45	0xbc8cc03d	-0.01718151
46	0x3d3c48aa	0.045967735
47	0x3e07c414	0.13258392
48	0xbe21237d	-0.15736194
49	0x3dd7fe57	0.10546558
50	0xbcc15512	-0.023600135
51	0xbeaa7c2b	-0.33297858
52	0xbd3799f9	-0.044824574
53	0xbe4bead0	-0.19913793
54	0xbec402fb	-0.38283524
55	0xbef737de	-0.4828481
56	0xbf171035	-0.59009105
57	0x3e6c5c84	0.23082167
58	0xbe3ad6d8	-0.18246019
59	0xbd3019a3	-0.0429932
60	0x3e4061b3	0.1878727
61	0x3e1412e3	0.1446033
62	0x3d4001ae	0.046876602
63	0xbd8c87df	-0.06861853
64	0xbe794d7c	-0.24345964
65	0xbe43ea2b	-0.19132297
66	0xbd459106	-0.04823401
67	0x3e48b873	0.19601612
68	0x3e9a6ee5	0.3016273
69	0xbe0e1e50	-0.13878751
70	0xbe792689	-0.24331106
71	0xbe32a2a4	-0.17444855
72	0x3ec56d3e	0.38559908
73	0xbcc1f907	-0.023678316
74	0xbcb81389	-0.022470253
75	0x3e90a506	0.28250903
76	0x3ede2a2c	0.4339155
77	0x3eda0739	0.42583635
78	0x3c44efe4	0.012020085
79	0x3e5b74ac	0.21431226
80	0x3dfff0da	0.12497111
81	0x3df3ce50	0.11904585
82	0x3e423074	0.18963796
83	0x3d7f8c87	0.062389877
84	0x3c99d989	0.018780487
85	0x3e23785d	0.15963884
86	0xbd98e105	-0.07464794
87	0x3c81cdbb	0.01584517
88	0x3e1397e4	0.1441341
89	0x3ce2d1bd	0.027687902
90	0xbe5127d1	-0.20425345
91	0x3d184806	0.037178062
92	0xbe130d2e	-0.14360496
93	0xbe0a19e2	-0.13486436
94	0xbec0e5c7	-0.37675306
95	0xbd5068c6	-0.05088117
96	0x3d468fc0	0.048476934
97	0xbdae7ef8	-0.08520311
98	0xbe8bfe7b	-0.2734259
99	0x3d0744ac	0.033024475
100	0x3e898f93	0.2686735
101	0x3e496ade	0.19669673
102	0x3db47512	0.08811392
103	0xbe4cb87a	-0.19992247
104	0x3d450590	0.048101008
105	0x3dd84e3a	0.105617955
106	0x3ce7821b	0.028260281
107	0x3e8e7f8a	0.2783168
108	0x3c8341a6	0.016022515
109	0x3e5026ab	0.2032725
110	0x3e8c0238	0.27345443
111	0xbdae2a1e	-0.08504127
112	0xbd4ad672	-0.049520917
113	0xbc54e356	-0.012993654
114	0x3cac2844	0.021015294
115	0xbdeaaad4	-0.11458364
116	0x3d925ff7	0.0714721
117	0xbe10d032	-0.1414192
118	0xbe014759	-0.12624873
119	0x3d40cad6	0.04706844
120	0x3e9982de	0.29982656
121	0x3e7d8b2e	0.24760124
122	0x3d58fc20	0.05297482
123	0x3e0ff7e5	0.14059408
124	0xbddd8869	-0.10817034
125	0x3e4cd9bc	0.20004934
126	0x3d0688e3	0.03284539
127	0x39b705dd	0.00034908848
128	0x3dfd06ea	0.123548344
129	0x3de2d8ab	0.110764824
130	0xbd2180be	-0.03942942
131	0xbd4b5157	-0.04963812
132	0xbdc0d399	-0.09415359
133	0xbdc84483	-0.097786926
134	0x3d17288e	0.03690391
135	0xbd398b98	-0.045299143
136	0xbda28396	-0.07935254
137	0xbda13b26	-0.0787261
138	0x3e26696d	0.16251154
139	0x3de54249	0.111942835
140	0xbca357d0	-0.019939333
141	0xbe29f411	-0.1659701
142	0x3cffdb23	0.031232422
143	0xbe5bc3f0	-0.21461463
144	0xbe13ad2b	-0.14421527
145	0x3e5ba7ec	0.21450776
146	0xbe0bec80	-0.13664436
147	0xbebf1fe3	-0.37329015
148	0x3e954c0d	0.29159585
149	0x3dad1538	0.08451313
150	0x3f1049f3	0.5636284
151	0x3e450020	0.19238329
152	0x3cbcaa84	0.023030527
153	0xbe3e9111	-0.18610026
154	0x3e76d173	0.24103336
155	0x3e42e8fc	0.19034189
156	0x3da48959	0.080340095
157	0x3d3c8dd4	0.046033695
158	0x3e360e74	0.17778951
159	0xbe8791a7	-0.2647831
160	0x3e9b0272	0.30275303
161	0xbd0ff421	-0.03514493
162	0xbd2e4a23	-0.04255117
163	0xbd00aa3e	-0.031412356
164	0xbd091411	-0.033466402
165	0xbeb93b17	-0.36177894
166	0xbdf012e8	-0.11722356
167	0xbe16c0e3	-0.14722018
168	0x3c1c6548	0.009545632
169	0x3da64a76	0.08119671
170	0x3dade212	0.08490385
171	0xbdd695e7	-0.1047781
172	0xbdb61c66	-0.08892135
173	0x3d88a63f	0.06672334
174	0x3d74dcd5	0.059780914
175	0xbcf0eada	-0.029408861
176	0xbe27fe7e	-0.16405675
177	0x3d8f2878	0.06990141
178	0x3c80fe79	0.015746342
179	0x3e09b422	0.13447621
180	0x3dc0efa2	0.09420706
181	0xbdf82db8	-0.12118095
182	0x3c4e36c5	0.0125863
183	0x3d9d4718	0.07679576
184	0x3ebf9e49	0.3742545
185	0xbd58154a	-0.052754678
186	0xbcdbfd13	-0.026854074
187	0x3df8ea00	0.12154007
188	0x3e95cac5	0.29256263
189	0x3e68c238	0.22730339
190	0x3d5a8a3f	0.053354498
191	0x3f400c96	0.75019205
192	0x3f1b4fe4	0.6066878
193	0xbe269f60	-0.16271734
194	0x3f05673a	0.52110636
195	0x3e3578ce	0.17721865
196	0xbee54b06	-0.447838
197	0xbe450ee8	-0.19243968
198	0x3e85ad8f	0.26108977
199	0x3ee509c4	0.44734013
200	0xbd177616	-0.03697785
201	0x3e0008c5	0.12503345
202	0x3cdf6b06	0.027272712
203	0x3e0d40ce	0.13794252
204	0xbdb9a2ca	-0.09064253
205	0x3c97ae39	0.018515693
206	0x3d6a1e78	0.057157964
207	0x3c903b01	0.01760626
208	0x3d434522	0.047673352
209	0xbdbd36f6	-0.092389986
210	0xbc1775e4	-0.009244416
211	0xbdf70050	-0.120606065
212	0xbe687e13	-0.22704343
213	0xbd3acb34	-0.045603946
214	0x3cf6c3ae	0.030122604
215	0xbd922d66	-0.07137565
216	0xbdef00ec	-0.11670098
217	0x3dd76271	0.10516823
218	0x3e7a481c	0.2444157
219	0x3e7f8e2f	0.24956582
220	0x3e5cbeb9	0.2155713
221	0x3e52a199	0.20569457
222	0x3ea61641	0.32438853
223	0x3ee1fd77	0.4413869
224	0x3e3f0498	0.18654096
225	0x3e542f8c	0.20721263
226	0xbda84672	-0.082165614
227	0x3eb00005	0.34375015
228	0xbdf36027	-0.11883574
229	0x3e4e5f86	0.20153627
230	0xbce958f1	-0.028484793
231	0x3da8b7a4	0.08238152
232	0xbe0a2206	-0.13489541
233	0xbef3378c	-0.47503316
234	0xbed5fa41	-0.4179249
235	0xbe7eb4d4	-0.24873668
236	0xbe478ab2	-0.19486502
237	0xbd47d1b2	-0.048783965
238	0xbe22b2f2	-0.15888575
239	0xbde8ac63	-0.11361005
240	0xbd92ba0e	-0.07164393
241	0x3d016160	0.031587005
242	0xbdedaf0b	-0.116056524
243	0x3d8d94ec	0.0691317
244	0xbeab6a90	-0.33479738
245	0xbdc817ce	-0.097701654
246	0x3de1ed15	0.11031548
247	0xbcbfa767	-0.023395253
248	0x3e1e5932	0.15463713
249	0x3e8fe950	0.2810769
250	0xbd98d1b7	-0.07461875
251	0x3e612ba7	0.21989308
252	0xbd8fc1cf	-0.07019388
253	0x3d33ee2e	0.043928318
254	0xbdbc38cc	-0.09190521
255	0xbde404f8	-0.1113376

lc1.bias f4 [24]
0	0x3d073e2e	0.033018284
1	0xbe929a5d	-0.28633395
2	0x3e0e41a7	0.13892232
3	0xbbb52a1b	-0.005528701
4	0xbdf681ce	-0.12036477
5	0x3d478768	0.048713118
6	0xbe0f2032	-0.13977125
7	0xbe6a9b64	-0.2291084
8	0x3ee2ee04	0.44322217
9	0xbe023220	-0.12714434
10	0xbe076ffc	-0.13226312
11	0xbde1c6a1	-0.110242136
12	0x3d35c155	0.04437383
13	0xbdaedc4e	-0.085381135
14	0xbd11cc2d	-0.035595108
15	0xbd985cf3	-0.07439604
16	0x3e602af7	0.2189139
17	0xbcd3b82c	-0.025844656
18	0xbd80198f	-0.06254875
19	0x3e00ba24	0.12571007
20	0xbd018044	-0.031616464
21	0x3da70337	0.0815491
22	0xbc15d1ba	-0.009144241
23	0xbe049d41	-0.12950613

rnn1.weight_ih_l0 f4 [72, 24]
0	0x3c4c32c1	0.012463273
1	0x3db95f82	0.0905142
2	0x3e42381a	0.18966714
3	0x3d8cd807	0.068771414
4	0x3e58e2d7	0.21180283
5	0xbdf3d849	-0.119064875
6	0xbe063171	-0.13104798
7	0xbdd3df4f	-0.10345327
8	0xbd8909a6	-0.066912934
9	0xbeb61dee	-0.3556971
10	0x3dd10d43	0.102076076
11	0xbe52c854	-0.20584232
12	0xbe00b507	-0.12569056
13	0xbe0ba8a4	-0.1363855
14	0x3e1961c8	0.14978707
15	0xbc8bc202	-0.017060284
16	0x3e1c2083	0.15246777
17	0x3ce50fb0	0.027961582
18	0xbe12b620	-0.14327288
19	0x3d2ac651	0.041693036
20	0x3e0826a7	0.13295995
21	0xbe4ed34a	-0.20197788
22	0x3d8ef3f2	0.069801226
23	0xbc029f7a	-0.0079725925
24	0x3eb05e37	0.3444688
25	0xbe1517a5	-0.14559801
26	0x3e094215	0.13404115
27	0x3e82fef5	0.25585142
28	0xbca03970	-0.019558638
29	0x3d03df05	0.03219511
30	0x3d256e6f	0.04038852
31	0x3ca1627e	0.019700285
32	0x3c90c23c	0.017670743
33	0x3cb3bb09	0.021939771
34	0x3e02e133	0.12781219
35	0xbdb209d9	-0.086932845
36	0x3d07e941	0.033181433
37	0xbdcfc993	-0.10145869
38	0xbe083072	-0.1329973
39	0x3df85794	0.12126079
40	0xbde53077	-0.111908846
41	0xbda7b206	-0.08188252
42	0xbdc78a90	-0.097432256
43	0xbdd08788	-0.101821005
44	0x3e008ba7	0.12553273
45	0x3e0514fc	0.12996286
46	0xbde4afd0	-0.11166346
47	0xb831a040	-4.2349333e-05
48	0x3d45e43b	0.04831336
49	0xbe185bae	-0.14878723
50	0xbea7344a	-0.3265708
51	0xbcfcc093	-0.030853545
52	0xbe1efe96	-0.15526804
53	0x3d0c323f	0.034227606
54	0x3e005e54	0.12535983
55	0xbef7cc60	-0.48398113
56	0xbc4fa35f	-0.012673228
57	0xbda16cb3	-0.07882061
58	0xbe5d0349	-0.21583284
59	0xbde071b8	-0.1095919
60	0x3dc5b85a	0.09654303
61	0x3eab9ad6	0.33516568
62	0x3de63f1d	0.11242507
63	0x3d1e2586	0.038610004
64	0x3e225024	0.15850884
65	0xbc9b7fab	-0.018981775
66	0xbed4c9f4	-0.41560328
67	0x3d1187f1	0.035530034
68	0xbe466069	-0.19372715
69	0xbdb2b846	-0.087265536
70	0x3d764245	0.060121793
71	0xbee6ab4c	-0.45052564
72	0x3e9c83aa	0.30569202
73	0xbdf87dd8	-0.12133378
74	0x3e9f7d5f	0.31150338
75	0x3e4b873e	0.1987581
76	0x3ddb940a	0.107215956
77	0xbd9f5568	-0.07779962
78	0x3da845a0	0.08216405
79	0x3d5722cd	0.052523423
80	0xbdc552c2	-0.096349254
81	0x3d13a34f	0.036044415
82	0x3da5f896	0.08104055
83	0x3e48572e	0.19564506
84	0xbda116bf	-0.078656666
85	0x3df60d3c	0.12014243
86	0x3e01e92f	0.12686609
87	0xbdaae73f	-0.08344888
88	0x3ddf166c	0.108929485
89	0x3e0bf6b4	0.13668329
90	0x3e53f7ed	0.20700045
91	0xbae0fb5a	-0.0017164752
92	0xbe22af69	-0.15887226
93	0xbe57ff89	-0.21093573
94	0xbd8f8ddd	-0.0700948
95	0x3dc000ea	0.09375174
96	0xbcbf28ec	-0.023334943
97	0x3e83c91c	0.25739372
98	0xbdbbbf47	-0.09167343
99	0x3d5563fc	0.052097306
100	0xbe07302b	-0.13201968
101	0x3e278cd7	0.1636232
102	0xbe56afbd	-0.20965476
103	0xbe6681d6	-0.22510466
104	0x3b35d35f	0.0027744395
105	0xbe193307	-0.14960872
106	0x3e8ba030	0.2727065
107	0xbb84d617	-0.004053842
108	0xbeb07ede	-0.34471792
109	0xbdff475f	-0.12464785
110	0x3e11fed1	0.14257361
111	0xbeb1ca1a	-0.34724504
112	0x3cbfa8e9	0.023395972
113	0xbb07533a	-0.0020648972
114	0xbdc52a06	-0.09627156
115	0xbdbda7ea	-0.09260543
116	0x3df6bc1d	0.120475985
117	0x3c8347a8	0.01602538
118	0xbe80e8ef	-0.25177714
119	0xbe860164	-0.26172936
120	0x3d5e6a13	0.05430038
121	0xbdce5c41	-0.1007619
122	0x3e9149aa	0.28376514
123	0x3e54d156	0.2078298
124	0xbe10b6e6	-0.1413227
125	0x3e1b4a5d	0.15165086
126	0x3dad4507	0.084604315
127	0x3df5312c	0.119722694
128	0x3ca60645	0.020266661
129	0xbd31a8f0	-0.043374002
130	0xbd80c0f0	-0.062868
131	0xbb87b0c0	-0.0041409433
132	0x3d7bb359	0.061450336
133	0xbdc8ad31	-0.09798659
134	0xbe378ec2	-0.17925552
135	0xbd9094ba	-0.07059617
136	0x3b1d445d	0.0023997047
137	0xbd86d44b	-0.065834604
138	0xbd043e71	-0.03228611
139	0x3e61d707	0.22054683
140	0x3ddefd6e	0.108881816
141	0xbd8f538d	-0.06998358
142	0x3cecec9f	0.028921423
143	0x3e14bc70	0.14525008
144	0x3e734749	0.23757662
145	0xbdeb45dd	-0.11487935
146	0xbdbdc73e	-0.09266518
147	0xbd541b18	-0.05178365
148	0x3e06a178	0.13147533
149	0xbce603d8	-0.028078005
150	0xbd8423eb	-0.06452163
151	0xbcab2c64	-0.02089519
152	0x3da0e89d	0.078568675
153	0xbe43dc7a	-0.19127074
154	0xbd26b3b6	-0.04069873
155	0x3de54040	0.11193895
156	0x3c5b15d9	0.013371908
157	0x3d1a3be5	0.037654776
158	0x3e488745	0.19582851
159	0xbe3e4022	-0.18579152
160	0x3df3ffaa	0.119139984
161	0xbe7ee388	-0.24891484
162	0xbe022bbe	-0.12711999
163	0xbce2ac56	-0.027670067
164	0xbe7ebcc6	-0.24876699
165	0xbdb13226	-0.08652143
166	0x3d824601	0.063610084
167	0xbe35dbe2	-0.1775966
168	0x3d8fa32c	0.070135444
169	0x3c5cef3d	0.013484773
170	0xbded8d1d	-0.11599181
171	0xbdc52ea8	-0.096280396
172	0x3e1e07b3	0.15432625
173	0x3ea2ba0f	0.31782576
174	0x3e5d122c	0.21588963
175	0x3d13c91f	0.036080476
176	0x3e534fc8	0.20635903
177	0x3e1ac69a	0.15114823
178	0x3d8bb5e3	0.068218015
179	0x3e7ff17d	0.24994464
180	0xbeb43d92	-0.35203224
181	0x3e03df66	0.12878188
182	0xbc4c71e5	-0.012478326
183	0xbd89d111	-0.067293294
184	0xbd5c6ad5	-0.05381282
185	0xbe4b4cce	-0.19853517
186	0x3dd0008b	0.101563536
187	0x3db5eeb3	0.08883419
188	0x3e4fd6e5	0.2029682
189	0x3e6372cd	0.22211762
190	0x3e6e3e23	0.23265891
191	0xbda269c6	-0.07930331
192	0x3d28407b	0.04107712
193	0xbd839898	-0.06425589
194	0xbe953434	-0.2914139
195	0xbd7317b0	-0.059348762
196	0xbe5253a3	-0.20539717
197	0x3de84956	0.11342113
198	0xbe0689d2	-0.13138512
199	0x3e320368	0.17384112
200	0xbdb777cb	-0.089583956
201	0x3dfcda2d	0.12346301
202	0xbcae87b9	-0.021304952
203	0xbde5bd53	-0.11217751
204	0xbdf0200c	-0.117248625
205	0xbc0cdd9b	-0.008597757
206	0xbe3899ce	-0.18027422
207	0xbe6e0632	-0.23244551
208	0xbe80e498	-0.25174403
209	0xbc1c3cbc	-0.009535965
210	0x3eabfd71	0.33591798
211	0x3d969fef	0.07354724
212	0x3d649646	0.055807374
213	0x3ea938be	0.33051103
214	0xbe8aeed1	-0.27135327
215	0xbe2af1af	-0.16693757
216	0xbde792ad	-0.11307273
217	0xbcc468ea	-0.023975808
218	0xbe1b038b	-0.1513807
219	0xbe0ece0d	-0.1394579
220	0x3e613efb	0.21996681
221	0xbe2f4313	-0.1711543
222	0x3c34dbdf	0.0110387495
223	0xbd8e715a	-0.06955214
224	0x3e0055b6	0.12532696
225	0x3da6f2cf	0.08151781
226	0xbe9ff0f6	-0.31238526
227	0xbda14f9d	-0.07876513
228	0x3d6423ae	0.05569809
229	0x3e8f0c02	0.2793885
230	0x3db20b1f	0.086935274
231	0xbdeac422	-0.114631906
232	0xbd81bd49	-0.063349314
233	0x3c65f48b	0.014035354
234	0xbe070900	-0.13187027
235	0xbd5aecf0	-0.053448617
236	0x3e881182	0.26575857
237	0x3e3ab31f	0.18232392
238	0xbd1a3e26	-0.037656926
239	0xbeb4a7e1	-0.3528433
240	0xbe04ab6b	-0.12956016
241	0x3e0faec9	0.14031519
242	0x3dac407e	0.084107384
243	0x3ccfc970	0.025364608
244	0xbdbdb3c8	-0.09262806
245	0x3e09c181	0.13452722
246	0x3d2e7e39	0.042600844
247	0xbe6ee54b	-0.23329656
248	0x3e16f222	0.14740804
249	0x3e395b57	0.1810125
250	0x3e095016	0.13409457
251	0x3ecfc00b	0.40576205
252	0x3d66a26f	0.056307252
253	0xbcf0e3e6	-0.029405545
254	0x3d8c8857	0.06861942
255	0xbe6eed6f	-0.23332761

rnn1.weight_hh_l0 f4 [72, 24]
0	0x3e7c89e4	0.24661976
1	0xbe360d8e	-0.17778608
2	0xbe26745b	-0.16255324
3	0x3e2d7cc4	0.16942126
4	0x3df0a21d	0.11749671
5	0x3e686397	0.2269424
6	0xbca6a51a	-0.020342398
7	0xbc92aa31	-0.01790342
8	0xbda3897a	-0.07985206
9	0x3e010d98	0.12602842
10	0x3e2cc443	0.16871743
11	0x3dd29040	0.1028142
12	0x3d5cdf75	0.053924043
13	0x3e04775d	0.12936158
14	0xbc655745	-0.013997857
15	0xbe64c148	-0.22339356
16	0x3de3a741	0.111158855
17	0xbdb99c3a	-0.09063001
18	0xbabc10a4	-0.0014348221
19	0x3e48dd16	0.19615588
20	0xbc8bb507	-0.017054094
21	0xbe0caa38	-0.13736808
22	0x3dffd58c	0.12491903
23	0x3da857c8	0.08219868
24	0x3d5a540f	0.05330282
25	0x3e23cff9	0.15997304
26	0xbda42b2e	-0.08016048
27	0x3e86bcc4	0.26315892
28	0x3dfe7906	0.12425427
29	0x3e1e57a4	0.1546312
30	0xbaab52c2	-0.0013070928
31	0xbd069992	-0.0328613
32	0x3db5b3c3	0.088721775
33	0x3d2b760a	0.041860618
34	0x3d8295c0	0.06376219
35	0x3e96b323	0.29433545
36	0x3d27d1d5	0.040971596
37	0xbe0748f0	-0.13211417
38	0xbdd9cf88	-0.106352866
39	0xbe7d78c7	-0.24753104
40	0x3d8bcd4f	0.06826269
41	0xbe1b8721	-0.15188266
42	0xbd710d40	-0.058850527
43	0x3d007a91	0.03136689
44	0xbda72874	-0.08162013
45	0xbd8249e4	-0.0636175
46	0x3d9f4199	0.07776184
47	0xbd0d680a	-0.034523048
48	0x3e70cda2	0.23515943
49	0xbd8ce1a9	-0.06878979
50	0xbe1cf46f	-0.15327619
51	0x3e9a1635	0.30095068
52	0xbdd0328c	-0.10165891
53	0x3d528e35	0.05140515
54	0x3e176d59	0.14787807
55	0xbdac6c17	-0.08419054
56	0xbe4796ff	-0.19491194
57	0x3e2b2bb1	0.16715886
58	0xbdedd4ac	-0.116128296
59	0x3f082b5e	0.53191173
60	0xbdaf3e5e	-0.085568175
61	0xbdb68b8d	-0.08913336
62	0xbdddd6be	-0.108319744
63	0xbd80964d	-0.062786676
64	0x3e5444ee	0.2072942
65	0x3e202619	0.15639533
66	0xbc9fafe5	-0.019493053
67	0xbc8e464f	-0.01736751
68	0xbd957ab1	-0.07298792
69	0xbe12798e	-0.14304182
70	0x3e0fd97a	0.14047804
71	0x3db3ac3d	0.08773086
72	0x3d4243b0	0.047427833
73	0xbe3e09d4	-0.18558437
74	0xbe3b9084	-0.18316847
75	0xbc5fe247	-0.013664789
76	0xbe28612a	-0.16443315
77	0xbdd147cd	-0.10218773
78	0x3e0b1657	0.1358274
79	0x3de9571a	0.113935664
80	0xbe33fb1a	-0.17576256
81	0x3e276fe7	0.16351281
82	0x3e60f649	0.2196895
83	0x3e4ed63c	0.20198911
84	0x3cb372e8	0.021905378
85	0xbd90d7ed	-0.070724346
86	0x3db8234e	0.08991109
87	0xbde93a80	-0.11388111
88	0x3e517cc5	0.20457752
89	0xbe3ae97a	-0.18253127
90	0x3cee0286	0.029053938
91	0x3e0db365	0.13837965
92	0xbdba48f8	-0.09095949
93	0x3d826929	0.06367714
94	0xbe31e1f0	-0.17371345
95	0xbe056951	-0.13028456
96	0xbc73fdcf	-0.014892056
97	0x3e987a71	0.29780915
98	0xbe1dbc68	-0.15403903
99	0x3e1d991e	0.15390441
100	0xbe83542f	-0.25650164
101	0x3e2dbc13	0.16966276
102	0xbe0aa6bf	-0.13540171
103	0x3d7be11e	0.061493985
104	0xbd96d389	-0.07364566
105	0xbcf7a00c	-0.030227683
106	0xbe3dd4cd	-0.18538208
107	0x3e83b5eb	0.2572473
108	0xbdbea780	-0.09309292
109	0xbe1fef21	-0.15618564
110	0x3da7fc8b	0.082024656
111	0xbe51fc95	-0.20506509
112	0xbe77b0d0	-0.24188542
113	0x3c51d4b7	0.012807063
114	0x3dd72b55	0.10506312
115	0xbe38a6ba	-0.18032351
116	0x3e01b75b	0.12667601
117	0xbe634095	-0.22192605
118	0xbd3d1c73	-0.04616971
119	0x3c92adf6	0.017905217
120	0xbd560300	-0.052248955
121	0xbe5e0e18	-0.21685064
122	0x3e31e737	0.17373358
123	0xbda03083	-0.07821753
124	0x3e109969	0.14121021
125	0x3d0db127	0.034592774
126	0x3e32434e	0.17408487
127	0x3d93e730	0.0722183
128	0xbad4e1bd	-0.0016241592
129	0xbe557e66	-0.20848998
130	0x3e2744a5	0.1633478
131	0x3e391058	0.18072641
132	0x3cd912f3	0.026498294
133	0xbdef4324	-0.11682728
134	0xbdb827f2	-0.08991994
135	0xbd70db97	-0.058803167
136	0x3dc8a62e	0.09797321
137	0xbdcc9522	-0.09989382
138	0x3e0d77c2	0.13815215
139	0x3e10c06b	0.14135902
140	0x3e0b1ce9	0.13585247
141	0xbd237c91	-0.039913718
142	0x3e842f54	0.25817358
143	0xbdf5dbef	-0.1200484
144	0x3d39d89c	0.04537259
145	0xbdba4873	-0.0909585
146	0xbe1c072e	-0.15237114
147	0x3bdd26ca	0.006749009
148	0x3d380e39	0.04493544
149	0x3e3c741d	0.18403669
150	0x3e5e7909	0.21725859
151	0xbd12cee1	-0.035841826
152	0x3d092fe5	0.03349294
153	0xbe951c4d	-0.29123154
154	0xbdfc2e5c	-0.1231353
155	0x3e91ba15	0.28462282
156	0xbe8433f5	-0.2582089
157	0xbc99fd34	-0.018797494
158	0xbe7dc9cd	-0.24784012
159	0xbd7b5eb4	-0.061369613
160	0xbd9b863c	-0.075939626
161	0x3e05f3a6	0.13081226
162	0x3b971ba1	0.004611448
163	0xbe8a26ee	-0.26982826
164	0x3df893c0	0.12137556
165	0xbe77d55e	-0.24202487
166	0xbe274c3f	-0.1633768
167	0x3e1bbe8d	0.15209408
168	0x3db2f1fe	0.087375626
169	0x3bfc4399	0.007698488
170	0x3e22f6b5	0.15914424
171	0x3e887c7f	0.26657483
172	0xbe3c9129	-0.18414749
173	0xbe50709c	-0.20355457
174	0xbe413ee9	-0.18871655
175	0xbd207f48	-0.039183885
176	0xbd81d217	-0.063388996
177	0xbe7139ae	-0.2355716
178	0x3debc1e7	0.11511593
179	0x3efd0b4b	0.49422678
180	0xbe6e0fcb	-0.23248212
181	0xbcc9b98a	-0.024624605
182	0x3ca29b26	0.019849371
183	0x3dc57a9e	0.09642528
184	0x3d982102	0.07428171
185	0xbd0fea74	-0.0351357
186	0x3e293e3c	0.16527647
187	0xbd64520a	-0.0557423
188	0xbdea2e2f	-0.1143459
189	0xbce4644d	-0.027879858
190	0x3da3a4d0	0.0799042
191	0x3d9d3958	0.07676953
192	0x3e9d7d2a	0.30759555
193	0xbc3fac96	-0.011698863
194	0x3e674f86	0.2258893
195	0x3db6f70c	0.08933839
196	0x3cdc6daf	0.02690777
197	0xbe8d5343	-0.27602586
198	0x3daa62ae	0.08319603
199	0x3e1925e3	0.14955859
200	0x3c16fc78	0.009215467
201	0xbd66b540	-0.056325197
202	0x3b966d1c	0.0045906436
203	0x3dfd8e3f	0.12380647
204	0xbe4edebb	-0.20202152
205	0x3e3dc7c7	0.1853324
206	0xbe0ab5d4	-0.13545924
207	0xbe1e53c5	-0.15461643
208	0x3e2d625e	0.16932055
209	0x3daaa3a6	0.08331995
210	0xbdf4505a	-0.11929388
211	0x3e31e966	0.1737419
212	0xbc78f637	-0.015195421
213	0x3e2c9dbf	0.1685705
214	0x3db05975	0.086108126
215	0xbe821a0f	-0.25410506
216	0x3e71fa5d	0.23630662
217	0xbdb0a8e1	-0.08625961
218	0x3e411405	0.18855293
219	0x3e1189fe	0.14212796
220	0xbd81f25f	-0.06345057
221	0xbe1892a9	-0.14899696
222	0x3c2baaa8	0.010477699
223	0x3e40dc4c	0.18834037
224	0x3c9dad8b	0.01924779
225	0xbe40aad2	-0.18815163
226	0xbd16f4e4	-0.03685464
227	0x3e0024c6	0.12514028
228	0x3e203c0f	0.1564791
229	0x3daff69a	0.085919574
230	0xbe5d5ed3	-0.21618204
231	0xbdbb532a	-0.09146722
232	0x3bec1783	0.0072049513
233	0x3e79577c	0.24349779
234	0xbe10ac4f	-0.1412823
235	0xbe169b77	-0.14707743
236	0xbd46e0ef	-0.048554357
237	0x3dafdc3e	0.0858693
238	0xbdbd6e9c	-0.09249613
239	0xbe000525	-0.12501962
240	0x3dcc63f4	0.09980002
241	0xbd5798d1	-0.05263597
242	0xbe8c9f37	-0.2746522
243	0xbd5e38a9	-0.054253254
244	0xbe487633	-0.1957634
245	0x3c815d4d	0.01579156
246	0x3c92b518	0.017908618
247	0x3de12af4	0.10994521
248	0xbde49b08	-0.11162382
249	0xbe1c1b73	-0.15244846
250	0xbd3aed52	-0.045636483
251	0x3e98a3d5	0.29812494
252	0xbd021ce8	-0.03176585
253	0xbdde2592	-0.1084701
254	0xbcd668a5	-0.026172945
255	0x3dd69d07	0.10479169

rnn1.bias_ih_l0 f4 [72]
0	0x3e7c17a1	0.24618389
1	0x3e4ab436	0.19795308
2	0x3ed10f23	0.4083186
3	0x3d3ee0a5	0.046600956
4	0x3e585511	0.211262
5	0x3e167b1f	0.14695404
6	0x3e725106	0.2366372
7	0x3d9b594b	0.07585391
8	0x3e3111d3	0.17291956
9	0x3da79fed	0.081848
10	0x3e247126	0.16058788
11	0x3d2a395c	0.04155861
12	0x3e08b110	0.13348794
13	0x3d3762f4	0.044772103
14	0x3df96d64	0.12179068
15	0xbd9082ed	-0.07056222
16	0x3e99b84e	0.30023426
17	0x3e9ef425	0.31045642
18	0x3c5aa0a9	0.013343968
19	0x3ea95388	0.33071542
20	0x3e35dc6e	0.17759869
21	0x3e20a3ae	0.15687439
22	0x3e2468b6	0.16055569
23	0x3c9632b1	0.018334718
24	0x39aa1ae0	0.0003244495
25	0xbf2f86eb	-0.68565243
26	0xbe7edd85	-0.2488919
27	0x3dcb4b0d	0.09926424
28	0xbefdbf2d	-0.49559918
29	0x3ea5376c	0.32268846
30	0xbf0c4185	-0.54787475
31	0xbf153781	-0.5828782
32	0xbdeb3668	-0.114849865
33	0xbe5a0b1f	-0.21293305
34	0xbe442e18	-0.19158208
35	0xbd1c8b15	-0.038218576
36	0x3f6fa59d	0.9361208
37	0xbf288a10	-0.65835667
38	0xbf154462	-0.5830747
39	0xbeb64e3c	-0.35606563
40	0xbf1bb6d7	-0.60825866
41	0xbf02e2e7	-0.51127476
42	0x3e3e411f	0.18579529
43	0x3e552c96	0.2081779
44	0xbda28579	-0.07935614
45	0xbe26d9cf	-0.16294025
46	0xbe8e909e	-0.2784471
47	0xbeae9ec5	-0.34105507
48	0x3e67e048	0.2264415
49	0xbde57013	-0.11203017
50	0x3b81425e	0.003944679
51	0x3dc0870b	0.094007574
52	0x3ca12fdb	0.01967614
53	0x3de9df9a	0.11419602
54	0x3dea29cc	0.11433753
55	0x3d8e3647	0.06943946
56	0x3dc635fd	0.09678266
57	0xbd87c54f	-0.066294305
58	0x3e4a8158	0.19775903
59	0x3e4779ff	0.19480132
60	0x3d0c932b	0.034320038
61	0x3e012a38	0.12613761
62	0xbe874a5d	-0.26423922
63	0xbe366749	-0.17812838
64	0x3da7033d	0.081549145
65	0x3e020e6d	0.12700815
66	0x3dbd5400	0.09244537
67	0xbddbd7ee	-0.10734545
68	0xbe5d71fe	-0.21625516
69	0x3e498bde	0.19682261
70	0xbdbcca4f	-0.09218275
71	0x3dcb3fd6	0.09924285

rnn1.bias_hh_l0 f4 [72]
0	0x3e234161	0.15942909
1	0x3dff7172	0.1247281
2	0x3e36c76a	0.17849508
3	0x3eae7b63	0.34078512
4	0xbdd641d7	-0.10461777
5	0x3de2dbe3	0.11077096
6	0x3e98e33c	0.29860866
7	0x3e8fb3a2	0.28066736
8	0x3ec56924	0.38556778
9	0xbd27eb6f	-0.04099601
10	0x3d158e48	0.036512643
11	0x3e0a1d60	0.13487768
12	0xbdd20de0	-0.10256553
13	0xbd370e2f	-0.04469126
14	0x3ebd2d8c	0.36948812
15	0x3cf4b971	0.029873582
16	0x3e467a40	0.19382572
17	0x3dc35fb2	0.09539737
18	0x3c78fd14	0.015197057
19	0x3e9b4407	0.30325338
20	0x3cafc261	0.021454992
21	0x3d52caff	0.051463123
22	0x3e41295b	0.18863432
23	0x3e9b0e1d	0.30284205
24	0x3dfacea3	0.12246444
25	0xbed3d243	-0.41371354
26	0xbe937c9f	-0.28806016
27	0x3ed9d770	0.42547178
28	0xbf0b6b8e	-0.5446099
29	0x3ea95ea7	0.33080027
30	0xbea1a7f4	-0.3157345
31	0xbed9fb18	-0.42574382
32	0xbed6e312	-0.41970116
33	0xbe7b6dc3	-0.2455359
34	0x3d9a4086	0.07531838
35	0xbe47a389	-0.19495977
36	0x3f2347af	0.63781255
37	0xbf067118	-0.5251632
38	0xbf515bd6	-0.81780756
39	0xbe2844fd	-0.16432567
40	0xbe9451e8	-0.2896874
41	0xbf08d1d8	-0.53445196
42	0x3d6070b7	0.054794993
43	0x3e11e442	0.1424723
44	0xbe615514	-0.22005111
45	0xbe5eb3a6	-0.21748218
46	0xbea3fd24	-0.32029068
47	0xbe8df3e6	-0.27725142
48	0xbd61e5d5	-0.055150826
49	0xbe0c86c7	-0.13723288
50	0x3d24f5c0	0.040273428
51	0x3e2950a0	0.16534662
52	0x3ea5ff4c	0.3242134
53	0xbdae4a84	-0.085103065
54	0x3e01f1c0	0.12689877
55	0x3e0174ab	0.12642162
56	0xbde780e7	-0.11303883
57	0xbd586d76	-0.052838765
58	0x3dd57bbc	0.10423991
59	0x3e238cb1	0.15971638
60	0xbcbbec2c	-0.022939764
61	0xbc22f2c2	-0.009945573
62	0xbe8010f6	-0.2501294
63	0xbe3156ac	-0.17318219
64	0xbcdec165	-0.027191827
65	0xbda0e8d7	-0.07856911
66	0xbe1e7855	-0.1547559
67	0xbdd9217a	-0.10602088
68	0x3dde7867	0.10862809
69	0xbe6a97de	-0.22909495
70	0x3d94c186	0.07263474
71	0xbe7195be	-0.23592278

lc2.weight f4 [1, 24]
0	0x3ebc9d97	0.36838982
1	0xbf040a25	-0.5157798
2	0x3eb3ec63	0.35141286
3	0x3eac894c	0.336985
4	0x3efb4a7f	0.49080274
5	0xbec02ab3	-0.37532577
6	0x3e996988	0.29963326
7	0x3f063690	0.52427006
8	0xbf114109	-0.5673986
9	0xbf06c63e	-0.52646244
10	0x3eb8edf3	0.3611904
11	0xbe29337c	-0.16523546
12	0x3c0da802	0.008646013
13	0x3f1dd116	0.61647165
14	0xbf1f71b0	-0.6228285
15	0xbe6adf78	-0.22936809
16	0x3eff688b	0.49884447
17	0x3efb7b42	0.49117476
18	0xbea5d03c	-0.32385433
19	0x3e9b9f69	0.30395058
20	0xbed32e14	-0.41246092
21	0x3f0a025c	0.5390985
22	0x3f08be8d	0.5341576
23	0xbeffe55f	-0.49979684
