libtorch/src/model.pt (torch, 2612 bytes, 2 tensors)

weight f4 [2, 3, 2, 2]
000000 28 92 15 be 2e 9c d8 bd 12 a9 06 3e 44 fe 19 3e
       -0.14606535 -0.10576664 0.13150433 0.15038401
000010 64 36 62 3e 9e 02 86 3e ac 66 32 3e 7e 53 3f be
       0.22091061 0.26173872 0.17421979 -0.18684193
000020 c6 21 91 3e b8 14 29 3d 24 ec 8a 3e f0 5d d5 3c
       0.2834608 0.041279525 0.27133286 0.02604577
000030 d4 d6 0c be 40 b8 fd bd a0 eb dd bc 54 5f 5a be
       -0.13753825 -0.123886585 -0.027089894 -0.21325427
000040 90 ad f3 bc 48 85 cd 3d a8 e1 74 be c4 22 de bd
       -0.029745847 0.10035187 -0.23914206 -0.10846475
000050 d4 78 f8 3d ca b9 2e be 00 ed 1c bd 00 5c b4 3a
       0.12132421 -0.1706306 -0.03831196 0.0013760328

bias f4 [2]
000000 5c f7 e4 bd d6 14 43 3e
       -0.111799926 0.19050917
