basis_net/vad_demo2/Vad1Net.pth (torch, 24279 bytes, 5 tensors)

conv1.weight f4 [6, 42, 3]
-0.034874942 0.05945831 0.18840958 0.033372905 -0.015722834 0.032871086 0.026417775 0.075798236
0.07344616 -0.10101481 0.10425667 0.1417992 -0.10531875 -0.23226437 -0.044315536 -0.036106348
-0.072063744 0.20264879 -0.13924254 -0.20959681 -0.6849586 0.089111626 0.19346341 -0.2050797
-0.45479837 -0.5315708 -0.44867143 -0.65427214 -0.2549827 -0.357311 -0.106755495 -0.20837238
-0.5732681 -0.3590437 0.064611614 -0.5281383 -0.35295394 -0.12477492 -0.29927248 -0.61509335
-0.887619 -0.4813002 -0.038859136 -0.91244966 -0.5897636 0.36161795 0.018593373 0.4718483
0.020832546 -0.5249416 0.41169423 0.27744582 -0.095278166 -0.64925766 -0.47081035 -0.3658667
-0.41901615 -0.43158948 -0.00607621 -0.12999168 0.2165175 0.88696545 0.77089196 -0.27750537
-0.38729668 -0.75312936 -0.32495505 0.09070518 0.5722942 0.014712863 0.26431215 0.108590715
0.4655494 0.13071916 -0.064729735 0.36262017 0.59125423 0.507834 -0.7514675 0.59724015
0.13438432 0.9099186 -0.35869095 1.1470174 0.64046603 0.24018128 -0.15115957 0.40914655
0.9146356 0.93261236 -0.04004186 -0.103838034 0.76939875 0.0120858 -0.23960803 -0.52278316
-0.12723765 -0.15142295 -0.3238081 -0.14626677 -0.040202033 -0.42211273 0.31404608 0.27415916
0.4977856 0.52014184 0.26035815 0.50267637 0.60473895 -0.37655663 -0.15388857 -0.2359456
0.35880262 0.20480204 -0.22822939 0.8856684 0.092026934 -0.77872914 0.14623484 -0.3280067
-0.20648381 0.46639496 -0.36326638 -0.13833891 -0.107349426 -0.03057894 -0.033439033 0.024854941
-0.032091886 -0.08313773 -0.042083137 0.08664779 -0.075998515 0.0062953155 -0.005401015 0.071941175
-0.07886889 -0.27166498 0.054802284 0.047080677 -0.11007797 0.0025690433 0.013118376 -0.17464963
-0.13077357 0.5332968 0.18077521 -0.42158833 -0.5776279 -1.0387355 -0.13055757 -0.06391098
-0.17860195 0.33862033 0.9420059 0.6458415 -0.25791562 0.040960528 0.2524781 -0.50927424
-0.37348714 -0.04696375 -0.18169543 0.21409357 0.9755269 -0.051262368 0.8751551 1.2480319
0.39903632 -0.30612156 0.0054789255 0.09064853 -0.19709556 0.03419177 0.14927575 0.39235133
-0.023561778 0.6875552 0.13772614 0.47108817 -0.016617041 -0.5477225 -0.35569817 -1.0793132
-0.67152727 -0.63584936 -0.8889289 -0.2567952 -0.71169883 -0.9284219 0.070391856 -0.11529444
-0.7765306 -1.270481 -0.19758677 -0.21133351 0.35571668 -0.32626057 0.55376047 0.13138686
-0.59642935 -0.76171625 -0.8131703 -0.7863957 -0.3261599 0.46325988 -1.1706469 -0.64871854
0.4885528 -1.1501367 -0.22366804 0.07725095 -0.48846158 -0.63085467 -0.60674435 -1.6738178
-1.6920547 0.12974648 -0.09850279 -0.6131141 -0.4473463 -0.40997136 -0.8349824 -1.0809406
-1.3342522 -1.030305 -1.0720971 0.42412373 -0.42355308 -0.34293574 -0.45891163 -0.37932938
-0.34726515 -0.47579357 -0.28357983 0.11794294 -0.46029228 -0.09749596 -0.49269348 -0.45456535
0.5311404 -0.15820393 0.13029352 0.018613571 0.5308184 0.8885194 0.03199198 -0.2228589
-0.009271469 -0.29060408 -0.22659872 -0.022178233 -0.0730773 -0.0493135 0.10795931 -0.030344144
00000000: 07d9 0ebd 8f8a 733d 71ee 403e 07b2 083d
00000010: 2ccd 80bc d5a3 063d 176a d83c 1b3c 9b3d
00000020: f16a 963d dae0 cebd 8584 d53d cf33 113e
00000030: 5bb1 d7bd b6d6 6dbe 3584 35bd 40e4 13bd
00000040: 2896 93bd 2a83 4f3e 9995 0ebe 8ca0 56be
00000050: 7259 2fbf 2880 b63d 461b 463e 6a00 52be
00000060: 55db e8be 0615 08bf 43b8 e5be 617e 27bf
00000070: 188d 82be 78f1 b6be a0a2 dabd 925f 55be
00000080: b3c1 12bf 93d4 b7be 1853 843d 1234 07bf
00000090: 61b6 b4be fe89 ffbd 3e3a 99be c276 1dbf
000000a0: 003b 63bf fb6c f6be c22a 1fbd 4d96 69bf
000000b0: bffa 16bf fd25 b93e 2151 983c 1a96 f13e
000000c0: 04a9 aa3c 9362 06bf 96c9 d23e 610d 8e3e
000000d0: 3321 c3bd c035 26bf 0e0e f1be e152 bbbe
000000e0: 4989 d6be 4cf9 dcbe f21a c7bb 8a1c 05be
000000f0: c3b6 5d3e 2b10 633f 2d59 453f 2f15 8ebe
00000100: c04b c6be 16cd 40bf 8260 a6be a3c3 b93d
00000110: df81 123f 380e 713c ec53 873e cf64 de3d
00000120: 7e5c ee3e 3edb 053e 0691 84bd 5aa9 b93e
00000130: 705c 173f 6901 023f 2d60 40bf bbe4 183f
00000140: 0b9c 093e 6df0 683f 57a6 b7be 77d1 923f
00000150: 95f5 233f 15f2 753e 93c9 1abe a87b d13e
00000160: 8f25 6a3f afbf 6e3f ef02 24bd 09a9 d4bd
00000170: 51f7 443f 8503 463c cf5b 75be 1ed5 05bf
00000180: 964a 02be 9e0e 1bbe 2dca a5be f5c6 15be
00000190: e3aa 24bd 291f d8be a6ca a03e 975e 8c3e
000001a0: c1dd fe3e 0428 053f aa4d 853e 66af 003f
000001b0: 2cd0 1a3f 08cc c0be f794 1dbe b99b 71be
000001c0: fab4 b73e a0b7 513e f7b4 69be 2abb 623f
000001d0: 9e78 bc3d cb5a 47bf 96be 153e 7ff0 a7be
000001e0: 7e70 53be 52cb ee3e 0dfe b9be b7a8 0dbe
000001f0: 04da dbbd af80 fabc 5ef7 08bd 979c cb3c
00000200: c872 03bd 1d44 aabd 5e5f 2cbd 6674 b13d
00000210: 1ca5 9bbd ef48 ce3b fffa b0bb e555 933d
00000220: 0386 a1bd ac17 8bbe 5c78 603d abd7 403d
00000230: 8f70 e1bd 655d 283b 75ee 563c 5ad7 32be
00000240: 82e9 05be 2486 083f 231d 393e 6dda d7be
00000250: 6cdf 13bf 49f5 84bf e2b0 05be c3e3 82bd
00000260: 6ee3 36be a55f ad3e 4c27 713f de55 253f
00000270: 840d 84be 3ac6 273d cf44 813e cc5f 02bf
00000280: b539 bfbe 105d 40bd 5e0e 3abe 583b 5b3e
00000290: 22bc 793f 7df8 51bd 2a0a 603f 82bf 9f3f
000002a0: 7d4e cc3e f7bb 9cbe 8f88 b33b f0a5 b93d
000002b0: 6bd3 49be ab0c 0c3d bedb 183e 46e2 c83e
000002c0: a104 c1bc 9e03 303f 1508 0d3e 7832 f13e
000002d0: 7620 88bc 8b37 0cbf 121e b6be ef26 8abf
000002e0: 36e9 2bbf 06c7 22bf d890 63bf a97a 83be
000002f0: e531 36bf 0fad 6dbf 9b29 903d 7e1f ecbd
00000300: b6ca 46bf 1f9f a2bf 3054 4abe d067 58be
00000310: 7f20 b63e a00b a7be 3fc3 0d3f 478a 063e
00000320: 98af 18bf d6ff 42bf ee2b 50bf 3b51 49bf
00000330: 6efe a6be 6630 ed3e c2d7 95bf 6b12 26bf
00000340: 9823 fa3e ae37 93bf 3c09 65be bf35 9e3d
00000350: a317 fabe b17f 21bf 9953 1bbf a93f d6bf
00000360: 4095 d8bf 43dc 043e d5bb c9bd 0cf5 1cbf
00000370: 930a e5be c4e7 d1be 68c1 55bf 435c 8abf
00000380: c7c8 aabf 09e1 83bf 7a3a 89bf bf26 d93e
00000390: f3db d8be 4695 afbe 77f6 eabe 7637 c2be
000003a0: bdcc b1be 379b f3be 6031 91be 118c f13d
000003b0: 6eab ebbe f6ab c7bd 5242 fcbe cabc e8be
000003c0: d1f8 073f 3600 22be aa6b 053e 7d7b 983c
000003d0: b7e3 073f 0276 633f 060a 033d 2035 64be
000003e0: 5ce7 17bc 0fca 94be 7f09 68be 20af b5bc
000003f0: 8da9 95bd f4fc 49bd c519 dd3d 4894 f8bc

conv1.bias f4 [6]
-0.47599712 0.10478155 0.10241106 0.17292437 -0.3561743 0.31454882
00000000: e5b5 f3be b697 d63d e4bc d13d 1613 313e
00000010: 7a5c b6be 8b0c a13e

fc1.weight f4 [22, 216]
-0.059322704 0.113381386 -0.2887204 0.004345056 -0.0024495127 0.123024344 -0.08828536 -0.042281173
-0.0033071006 -0.100235805 0.5470205 -0.18537764 -0.26559445 -0.28122652 -0.16795933 -0.058082283
0.0028409897 0.11687401 0.29502696 -0.00016490927 0.1027969 -0.051075924 -0.009771557 0.2043127
0.1355014 0.36540347 0.16560149 0.088082194 0.3050187 0.03363951 0.06782777 -0.1487685
-0.018016318 -0.03407044 -0.5585025 -0.4103281 -0.17029184 -0.07208167 0.049055826 -0.0665157
0.18259588 0.005937303 -0.29082328 -0.3652509 0.06888003 0.41293293 0.13460088 0.07456522
-0.06502963 -0.0049503543 0.065225616 -0.33358312 0.1717846 -0.13303454 -0.2681982 -0.10520416
-0.3125048 0.27168655 -0.10090813 0.04305365 0.21932675 0.35469717 -0.46143416 -0.020839026
0.3327024 0.043592624 -0.16014062 -0.16280803 0.039930273 -0.09822599 0.24095939 0.3370469
-0.087818705 -0.1842434 -0.09212019 0.2766561 0.22108252 -0.06015109 0.18201901 0.3932224
0.24925229 0.11982005 0.23658083 -0.21883616 -0.2232508 -0.082259536 -0.4579829 -0.036997426
-0.21261004 -0.020925855 0.18395673 0.031588417 -0.0025308367 0.022098616 0.042110763 0.1915966
0.0771195 -0.23400412 0.043045104 -0.2757765 -0.49411723 -0.57398754 -0.9909414 0.35209635
-0.12344135 -0.6167791 -0.5616433 -1.0695443 0.37206045 -0.07669302 0.033043053 0.11057947
0.15962104 -0.043538664 -0.24618907 0.10381584 0.057005048 -0.16078287 0.13097902 0.09370416
0.3054158 0.42958337 0.035638552 -0.19018832 0.124056116 0.12980524 0.18737113 -0.105313726
0.3477675 0.062305037 0.09513598 0.4364368 -0.094589785 0.2787689 0.030261474 0.17619574
0.27736098 0.3455396 -0.3102031 0.22742966 -0.06255549 0.35199836 -0.096325 -0.28313538
-0.119837694 -0.6541628 0.23895942 -0.32609993 0.031731367 -0.14605063 0.092319794 0.042015593
-0.24165677 -0.10317853 0.2657249 0.26725605 -0.021821454 0.31748796 -0.013012328 0.3089262
0.01890626 -0.508381 -0.23864232 -0.4975462 -0.50373966 -0.8431583 -0.57102954 0.019390801
-0.35205048 -0.53463703 -0.19475152 -0.24896769 -0.3497847 -0.19468053 0.11737101 -0.14138554
-0.15901846 0.13438866 -0.0013185572 -0.48291835 -0.11032986 -0.10609763 -0.48021618 -0.17319563
-0.44226804 -0.14846615 -0.06615966 -0.16752486 0.08718106 -0.20775585 0.03174504 0.28311703
0.05247494 -0.028729113 -0.16263239 0.1812918 0.015181668 0.045990407 0.0747972 0.03635839
-0.01637561 -0.017478818 0.13467799 0.136764 0.019614233 0.4383394 -0.049614593 0.18065515
0.14519788 0.08275862 -0.2942901 -0.27952474 0.1460292 -0.1476313 -0.034093983 -0.9733501
0.035157535 -0.10203917 -0.1431238 0.33465728 -0.09375792 -0.048427 -0.092994474 0.24311693
0.34788507 0.01751142 -0.2561813 0.036600843 0.017720506 0.025150241 0.042353887 -0.2020564
-0.18754056 -0.27537423 -0.4258235 -0.06971012 -0.45961687 0.17385192 -0.468226 -0.39744422
-0.034655288 -0.04578931 -0.40981492 -0.2827304 0.029475162 -0.14258564 0.14914843 0.093874924
0.001155792 -0.012076091 -0.34598228 -0.05541076 0.31947905 -0.13021936 0.13010544 -0.3643887
00000000: 5dfc 72bd 8034 e83d 29d3 93be f960 8e3b
00000010: 0188 20bb 30f4 fb3d f4ce b4bd 062f 2dbd
00000020: f1bb 58bb 6e48 cdbd 8909 0c3f a3d3 3dbe
00000030: fffb 87be ecfc 8fbe 88fd 2bbe b0e7 6dbd
00000040: e62f 3a3b a45b ef3d c60d 973e 7feb 2cb9
00000050: 2e87 d23d fd34 51bd e118 20bc 5937 513e
00000060: e1c0 0a3e 2a16 bb3e 7093 293e 7064 b43d
00000070: 692b 9c3e 95c9 093d 49e9 8a3d c556 18be
00000080: f596 93bc 728d 0bbd 05fa 0ebf 8616 d2be
00000090: fc60 2ebe 8e9f 93bd c3ee 483d 6239 88bd
000000a0: 6afa 3a3e b58d c23b cae6 94be 2a02 bbbe
000000b0: f910 8d3d f26b d33e d0d4 093e a6b5 983d
000000c0: 412e 85bd 9536 a2bb 0295 853d 68cb aabe
000000d0: 4de8 2f3e 353a 08be 4651 89be 4775 d7bd
000000e0: a100 a0be 801a 8b3e eca8 cebd 0659 303d
000000f0: 3197 603e de9a b53e 1941 ecbe 9bb6 aabc
00000100: f857 aa3e 2e8e 323d e7fb 23be 26b7 26be
00000110: ed8d 233d b52a c9bd 0fbe 763e 6991 ac3e
00000120: 4bda b3bd 4daa 3cbe 83a9 bcbd dea5 8d3e
00000130: 7563 623e fd60 76bd 3163 3a3e 7254 c93e
00000140: fe3b 7f3e 3764 f53d 3f42 723e 9616 60be
00000150: dc9b 64be b077 a8bd bc7c eabe 9d8a 17bd
00000160: 72b6 59be b36c abbc 275f 3c3e db62 013d
00000170: 65dc 25bb 2808 b53c 567c 2c3d e631 443e
00000180: d4f0 9d3d c79e 6fbe 1050 303d 9432 8dbe
00000190: effc fcbe d9f0 12bf 56ae 7dbf f945 b43e
000001a0: d2ce fcbd 3ce5 1dbf dbc7 0fbf d4e6 88bf
000001b0: b57e be3e 3b11 9dbd 2758 073d 7d77 e23d
000001c0: b373 233e 9955 32bd fd18 7cbe 669d d43d
000001d0: 207e 693d 44a4 24be 5d1f 063e f7e7 bf3d
000001e0: 765f 9c3e 5af2 db3e bbf9 113d bac0 42be
000001f0: 2211 fe3d aaeb 043e 38de 3f3e b9ae d7bd
00000200: 950e b23e 9133 7f3d a7d6 c23d a574 df3e
00000210: 4ab8 c1bd ccba 8e3e e9e6 f73c a86c 343e
00000220: 4202 8e3e 91ea b03e f1d2 9ebe 52e3 683e
00000230: 181d 80bd 2139 b43e 0b46 c5bd 1ff7 90be
00000240: 776d f5bd 3777 27bf c7b1 743e 92f6 a6be
00000250: c0f8 013d 4c8e 15be 2912 bd3d 8b18 2c3d
00000260: df74 77be 444f d3bd 180d 883e c9d5 883e
00000270: e8c2 b2bc c88d a23e a931 55bc 932b 9e3e
00000280: 4de1 9a3c 4225 02bf a75e 74be 60be febe
00000290: 15f5 00bf 39d9 57bf fe2e 12bf 75d9 9e3c
000002a0: f63f b4be f9dd 08bf f16c 47be 63f1 7ebe
000002b0: fb16 b3be 555a 47be 3660 f03d 5fc7 10be
000002c0: bcd5 22be 2e9d 093e 70d3 acba 1341 f7be
000002d0: 9ff4 e1bd b749 d9bd e5de f5be 325a 31be
000002e0: f570 e2be 8307 18be b77e 87bd a38b 2bbe
000002f0: fc8b b23d f3bd 54be 1607 023d b7f4 903e
00000300: f6ef 563d 5159 ebbc 1b89 26be 8fa4 393e
00000310: 88bc 783c 7060 3c3d 462f 993d 89ec 143d
00000320: 2526 86bc bd2f 8fbc 07e9 093e dd0b 0c3e
00000330: 07ae a03c 066e e03e ac38 4bbd aafd 383e
00000340: c1ae 143e 5a7d a93d 31ad 96be de1d 8fbe
00000350: ae88 153e a92c 17be 22a6 0bbd 792d 79bf
00000360: 5901 103d eaf9 d0bd 0c8f 12be 3358 ab3e
00000370: 2704 c0bd 645b 46bd e373 bebd a5f3 783e
00000380: fe1d b23e 1c74 8f3c 322a 83be c4ea 153d
00000390: 982a 913c e107 ce3c 457b 2d3d dfe7 4ebe
000003a0: a20a 40be dafd 8cbe 8a05 dabe 2ec4 8ebd
000003b0: e752 ebbe 3d06 323e 51bb efbe cf7d cbbe
000003c0: b4f2 0dbd 928d 3bbd 43d3 d1be 0ac2 90be
000003d0: e575 f13c f801 12be 5eba 183e 7f41 c03d
000003e0: f27d 973a ccda 45bc 9724 b1be 65f6 62bd
000003f0: c292 a33e 3958 05be 5c3a 053e 2891 babe

fc1.bias f4 [22]
0.11971732 -0.01101101 -0.29473093 -0.94544613 -0.051405977 -0.9465413 -0.074467644 -0.6528999
-0.69449174 0.23899212 1.0493821 -0.76048034 0.15411378 0.3494395 -0.03569614 0.9970939
0.6624702 0.3063364 0.036432978 1.0319217 0.31697536 0.2974305
00000000: 5b2e f53d 8667 34bc f9e6 96be c208 72bf
00000010: 138f 52bd 8850 72bf 7e82 98bd 7324 27bf
00000020: 36ca 31bf 5aba 743e 2752 863f d7ae 42bf
00000030: 01d0 1d3e bce9 b23e 1e36 12bd 8c41 7f3f
00000040: a697 293f 20d8 9c3e bf3a 153d 0316 843f
00000050: 984a a23e cf48 983e

fc2.weight f4 [1, 22]
-0.92098695 -0.6977489 0.8279127 0.32278872 0.6811772 0.31846917 -0.37804258 0.23596495
0.44579098 -0.76984644 -0.9248108 0.21494651 0.9946922 -0.9665295 -0.74641204 -0.49847525
-1.2822939 -0.8068357 -0.6116174 -0.5221363 -0.53131217 -0.5987279
00000000: cdc5 6bbf ac9f 32bf 16f2 533f 9044 a53e
00000010: a161 2e3f 640e a33e cc8e c1be cca0 713e
00000020: b73e e43e a814 45bf 67c0 6cbf f01a 5c3e
00000030: 26a4 7e3f 7a6e 77bf dc14 3fbf 2638 ffbe
00000040: 3522 a4bf c98c 4ebf f592 1cbf b9aa 05bf
00000050: 1304 08bf 3b46 19bf
