basis_net/vad_demo2/Vad2Net.pth (torch, 24279 bytes, 5 tensors)

conv1.weight f4 [6, 42, 3]
-0.031243037 0.12853032 0.0076351003 -0.1256954 0.10169135 0.10437115 0.068359025 -0.03628906
-0.078013316 0.060517125 -0.14879954 -0.31782195 -0.13428651 -0.106964916 -0.43443674 0.083261535
0.027617896 0.19201241 -0.029784955 -0.057009444 0.46586013 -0.081249684 0.24945758 0.03034986
0.0049635484 -0.062060688 -0.25758696 0.11630355 0.24586187 -0.049068414 0.568955 0.1892058
0.5084913 0.3121446 0.5821391 0.55262953 0.53705513 0.53128237 -0.219922 -0.7046145
-0.9088043 -0.6063787 0.007243815 -0.48583245 -0.27942568 -0.10998811 0.23187797 -0.5653643
0.006267009 -0.5685816 -0.04551697 -0.0602649 -0.5772877 -0.16808227 -0.20463751 -0.14347543
0.20969227 -0.2268469 -0.15644555 0.33198318 -0.24225365 -0.016958017 0.4631885 -0.44492635
0.41915748 0.6235193 0.19802158 -0.16035224 0.053159077 0.8557244 0.45982876 -0.31356096
0.20878294 -0.0617767 -0.4052842 -1.216469 -0.17368256 -0.2536237 -0.10828663 -0.5324678
-0.6683657 0.4338418 0.16329879 0.3875269 -0.25422674 -0.38564512 0.19787249 -0.16308123
-0.046691634 0.25342017 0.028016798 0.06722922 1.0727853 -1.30568 0.47560143 -0.5171954
0.07651059 -0.9320296 -0.35880768 0.42863855 0.59610796 0.16421431 0.6506833 0.5142613
0.8881651 0.5870515 0.19425595 0.69731355 0.6720564 0.7980003 0.40918285 1.0542909
1.1390359 0.33299422 0.3660393 0.3666857 0.5970411 -0.37214217 -0.7455749 0.014694521
0.37306777 -0.16199112 -0.027337205 0.06673073 -0.1280936 -0.32219613 0.009437723 -0.03465971
0.0029531608 0.0893441 0.043498408 -0.109056026 -0.019110724 -0.06333451 -0.060834467 -0.028076382
-0.10475781 -0.34359035 -0.046836168 0.016653394 -0.1406896 0.090717465 0.037561655 -0.030891974
0.028941775 -0.11574269 -0.09139699 -0.2600731 -0.6327802 -0.5453332 -0.051675778 -0.036033776
0.031410433 0.20155323 0.8242355 0.59025705 -0.4563492 0.052013207 0.5274943 -0.4889997
-0.36328608 0.3682856 0.02007202 -0.0114811985 0.9515709 -0.012200493 1.0880553 0.965859
-0.13082063 0.32545197 -0.5671577 0.33360818 0.5843323 0.46194503 0.5595739 0.8304716
1.3651415 0.71229756 0.070155784 0.79850256 -0.7952017 -0.9172665 -0.14464156 -1.6379554
-0.8587032 -0.3985921 -1.1053113 -0.5671808 -1.3503702 -0.5480793 -0.16014206 -0.0045136297
-0.948032 -1.1572202 -0.39318976 -0.6078072 -0.20563845 -0.39614758 0.10691028 -0.53504133
-0.19711202 -0.85941863 -1.2157784 -1.0783978 -0.4622459 0.32634702 -0.8325584 -0.5636055
-0.30055916 -0.56015676 -0.18120119 0.13068698 -1.2255725 0.22253822 0.05552049 -1.6346599
-1.0461619 -0.24758129 -0.22045703 -0.13266656 -0.011538681 -0.031996075 -0.8638137 -0.17413364
-0.7671001 -0.97101027 0.06040568 0.8475231 -0.8015975 -0.8210986 -0.55318075 -0.37864706
-0.59114826 -0.68958884 0.090107344 0.05529763 0.13523751 0.2014136 -0.44710976 -0.54786015
0.6018746 -0.15816684 0.32837173 0.45491368 0.6298573 1.2045866 -0.30330902 0.007939553
0.080006 -0.23983297 -0.32198793 -0.02252365 0.06414781 0.009775487 -0.04310908 0.118778385
00000000: 66f1 ffbc 749d 033e dd2f fa3b 4cb6 00be
00000010: 8e43 d03d 8bc0 d53d d1ff 8b3d d6a3 14bd
00000020: 72c5 9fbd cee0 773d e85e 18be 8fb9 a2be
00000030: 6782 09be 6c10 dbbd 7e6e debe 0685 aa3d
00000040: ed3e e23c e79e 443e 94ff f3bc bc82 69bd
00000050: 3885 ee3e 3c66 a6bd cf71 7f3e 45a0 f83c
00000060: 43a5 a23b 5933 7ebd 70e2 83be 8e30 ee3d
00000070: 37c3 7b3e f6fb 48bd 09a7 113f 2abf 413e
00000080: 7c2c 023f 6bd1 9f3e 1107 153f 2179 0d3f
00000090: 727c 093f 1f02 083f 3c33 61be 9e61 34bf
000000a0: 66a7 68bf a23b 1bbf 865d ed3b 08bf f8be
000000b0: e210 8fbe 7241 e1bd 6b71 6d3e b7bb 10bf
000000c0: 7b5b cd3b 908e 11bf 0170 3abd 54d8 76bd
000000d0: 20c9 13bf c21d 2cbe 7f8c 51be 39eb 12be
000000e0: 92b9 563e 8e4a 68be 4333 20be b3f9 a93e
000000f0: 5711 78be 8aeb 8abc 0b27 ed3e 63cd e3be
00000100: cf9b d63e f69e 1f3f 2bc6 4a3e 6133 24be
00000110: 55bd 593d c110 5b3f ad6e eb3e 108b a0be
00000120: 32cb 553e 9109 7dbd 6981 cfbe 42b5 9bbf
00000130: d7d9 31be f7da 81be 61c5 ddbd cf4f 08bf
00000140: 041a 2bbf 8320 de3e cc37 273e ed69 c63e
00000150: 022a 82be 4773 c5be 169f 4a3e c4fe 26be
00000160: ba3f 3fbd 4ac0 813e 7c83 e53c 79af 893d
00000170: 0751 893f 8620 a7bf 0882 f33e eb66 04bf
00000180: 96b1 9c3d 7e99 6ebf a4b5 b7be 8376 db3e
00000190: 889a 183f cc27 283e 2e93 263f a1a6 033f
000001a0: ca5e 633f 0249 163f 08eb 463e 2483 323f
000001b0: e30b 2c3f bf49 4c3f 6a80 d13e 01f3 863f
000001c0: eecb 913f 387e aa3e 8169 bb3e 3abe bb3e
000001d0: afd7 183f 6b89 bebe ffdd 3ebf 4ac1 703c
000001e0: bd02 bf3e 00e1 25be 46f2 dfbc 1faa 883d
000001f0: f82a 03be e4f6 a4be aea0 1a3c 57f7 0dbd
00000200: d189 413b 0afa b63d 632b 323d c458 dfbd
00000210: 188e 9cbc 86b5 81bd 902d 79bd 7100 e6bc
00000220: 438b d6bd 13eb afbe 48d7 3fbd b36c 883c
00000230: ef10 10be 14ca b93d 40da 193d 2a11 fdbc
00000240: 4d17 ed3c 810a edbd 582e bbbd 4d28 85be
00000250: e2fd 21bf f59a 0bbf fba9 53bd 2798 13bd
00000260: 3aa8 003d f863 4e3e 1901 533f 161b 173f
00000270: 9aa6 e9be cd0b 553d de09 073f 2b5e fabe
00000280: a200 babe ee8f bc3e 146e a43c a31b 3cbc
00000290: 279a 733f 94e4 47bc 6545 8b3f 8942 773f
000002a0: d8f5 05be a4a1 a63e 3f31 11bf b1ce aa3e
000002b0: cd96 153f 0f84 ec3e 3c40 0f3f c999 543f
000002c0: f5bc ae3f 2259 363f d6ad 8f3d aa6a 4c3f
000002d0: 5792 4bbf fad1 6abf eb1c 14be 86a8 d1bf
000002e0: f9d3 5bbf 4414 ccbe d77a 8dbf c332 11bf
000002f0: eed8 acbf ed4e 0cbf 48fc 23be 12e7 93bb
00000300: 3ab2 72bf cb1f 94bf 2b50 c9be 4199 1bbf
00000310: e392 52be dbd3 cabe c7f3 da3d 78f8 08bf
00000320: bcd7 49be dc02 5cbf a09e 9bbf f008 8abf
00000330: 7fab ecbe f516 a73e 8c22 55bf 7348 10bf
00000340: e4e2 99be 6f66 0fbf ce8c 39be cfd2 053e
00000350: 8fdf 9cbf 0fe1 633e 7469 633d 893c d1bf
00000360: a2e8 85bf f385 7dbe 7dbf 61be bed9 07be
00000370: bc0c 3dbc 510e 03bd e522 5dbf 1750 32be
00000380: ac60 44bf 2194 78bf f26b 773d 46f7 583f
00000390: 7e35 4dbf 8533 52bf 419d 0dbf 07de c1be
000003a0: 7e55 17bf e588 30bf 338a b83d c57f 623d
000003b0: b47b 0a3e 5e3f 4e3e 92eb e4be 9040 0cbf
000003c0: 7414 1a3f 7df6 21be 5720 a83e 72ea e83e
000003d0: 543e 213f e52f 9a3f 524b 9bbe e614 023c
000003e0: 30da a33d c696 75be 9adb a4be 8583 b8bc
000003f0: ed5f 833d 5d29 203c 2693 30bd 1542 f33d

conv1.bias f4 [6]
-0.21801993 -0.18933406 -0.23654947 -0.6421968 0.40865064 -0.6487402
00000000: 9e40 5fbe cae0 41be 063a 72be 0267 24bf
00000010: a83a d13e d613 26bf

fc1.weight f4 [22, 216]
0.27055815 -0.14152065 -0.18979542 -0.185238 0.11635436 0.34480324 0.093335845 -0.41523862
-0.618866 0.027963767 0.11863056 -0.014636292 0.4157977 0.028315004 0.17090744 -0.14670485
-0.0039628483 0.19548461 -0.04156755 -0.5334952 -0.02233253 -0.11884927 0.05559104 -0.20373319
0.22156243 -0.021517335 0.21139836 -0.22764096 0.1291638 0.53467643 -0.41047063 0.2709668
0.31341058 0.9197976 0.7949211 1.4336785 -0.20747247 -0.19409168 -0.058947347 -0.29774863
0.1117069 0.20805815 -0.2103982 0.44170105 0.080286644 0.28008133 0.15189143 -0.18919155
0.33447316 -0.12934826 -0.24448599 -0.022236686 -0.24747927 -0.36708385 -0.5545028 0.14319104
-0.0059201573 0.023589406 -0.0046494245 0.054099713 -0.021767236 0.19050302 -0.2708443 0.04884612
-0.095833234 0.38189417 -0.5653704 -0.45583856 -0.2604851 -0.19222146 -0.6758596 -0.71803373
0.22058988 -0.09280159 -0.07320803 -0.25566643 -0.083787516 -0.18077675 -0.14087288 -0.19614741
-0.34156543 0.077316 0.01930123 -0.30189034 0.005722176 0.3718847 -0.3064762 -0.02291973
-0.09821017 -0.2154874 -0.09751046 -0.17975171 0.0893644 0.101595744 -0.11270795 -0.055572346
-0.019402359 0.10971843 -0.21365255 -0.17516515 -0.09049395 0.25660527 -0.21889873 -0.063062385
0.46639428 0.20901164 0.30540565 0.26562318 -0.20863856 -0.023182482 0.045730848 0.016753286
-0.04693399 -0.2534981 0.28843197 0.090028845 -0.092762105 0.3283521 0.0145141315 0.17630035
0.023117166 0.35735375 -0.2953769 0.0746715 -0.07883603 -0.17668587 -0.10302604 0.0015223849
0.27298382 -0.12948105 -0.011995533 -0.06862045 -0.23237403 -0.33245456 -0.1850286 -0.07595072
0.15138847 0.49447873 0.20701404 0.45406157 -0.122362465 0.21446045 0.6310422 0.5247261
0.1278899 -0.09909338 0.09492859 -0.060245503 0.16515635 0.053113975 0.17029567 0.031205414
-0.13380462 0.060453545 -0.21189308 0.017947773 0.0072866688 0.11951094 0.08030061 -0.04642103
0.14900602 0.094742805 -0.0071522333 -0.12923984 0.19830145 0.0014294435 0.12500226 0.14178066
-0.25042877 0.21011026 0.20309351 0.026023658 0.21120854 -0.039111372 0.38707465 -0.16592267
-0.22199652 0.3854596 0.28164068 0.90485394 -0.3048088 -0.02911703 0.13167164 0.0006138591
0.15549491 0.27089316 -0.17596628 -0.12794757 -0.22314 -0.05909354 -0.17582837 0.1728509
-0.100172676 0.07597765 -0.08850441 -0.23717067 -0.22187123 -0.17478733 0.09258358 -0.27332848
0.04803271 -0.3856074 0.06545843 0.15781444 0.1601042 0.012301277 -0.08001987 -0.3040905
0.14465395 0.00012354912 0.13877404 0.10600638 0.15545323 -0.10026913 0.06829476 0.5712666
0.058395967 0.07858851 -0.068492875 -0.008456461 0.12424765 0.24185145 -0.04736372 -0.12212339
-0.46291864 -0.1606014 -0.07345688 0.030012295 0.20169254 0.05615484 0.18245645 0.22827171
-0.08010379 0.21988553 -0.20895265 -0.0634981 -0.037539035 -0.23353715 -0.062229764 0.128724
0.15310179 0.12812632 0.15848139 0.007984165 -0.1824908 0.13725632 -0.2963169 0.20676115
0.3171025 0.4778559 0.8019504 1.1466707 0.09083444 0.07585463 0.3607363 -0.11086945
00000000: 9986 8a3e caea 10be bb59 42be 08af 3dbe
00000010: 324b ee3d 0d8a b03e dd26 bf3d 289a d4be
00000020: 016e 1ebf 4514 e53c 94f4 f23d 0fcd 6fbc
00000030: 70e3 d43e def4 e73c 5c02 2f3e cc39 16be
00000040: c8da 81bb 1e2d 483e bc42 2abd 2493 08bf
00000050: b6f2 b6bc 3f67 f3bd 6eb3 633d 6f9f 50be
00000060: 43e1 623e 1f45 b0bc d078 583e b61a 69be
00000070: 8443 043e 8ee0 083f 3529 d2be 29bc 8a3e
00000080: 5a77 a03e db77 6b3f f37f 4b3f c782 b73f
00000090: aa73 54be f8bf 46be c672 71bd 8272 98be
000000a0: 96c6 e43d 320d 553e a072 57be a426 e23e
000000b0: 536d a43d d266 8f3e 6d89 1b3e 6ebb 41be
000000c0: 1140 ab3e df73 04be 895a 7abe b629 b6bc
000000d0: 356b 7dbe 6af2 bbbe e5f3 0dbf aca0 123e
000000e0: e1fd c1bb 923e c13c 335a 98bb a997 5d3d
000000f0: 3451 b2bc 3913 433e 1bac 8abe de12 483d
00000100: 3744 c4bd a287 c33e 1dbc 10bf ac63 e9be
00000110: 4e5e 85be b4d5 44be 2205 2dbf 0fd1 37bf
00000120: 50e2 613e c30e bebd 17ee 95bd b6e6 82be
00000130: ca98 abbd 8a1d 39be fb40 10be deda 48be
00000140: aae1 aebe da57 9e3d 9d1d 9e3c 5f91 9abe
00000150: 1781 bb3b ac67 be3e 73ea 9cbe 28c2 bbbc
00000160: 6a22 c9bd bba8 5cbe 90b3 c7bd d510 38be
00000170: af04 b73d 6e11 d03d 6dd3 e6bd d49f 63bd
00000180: b2f1 9ebc 0eb4 e03d bcc7 5abe 7e5e 33be
00000190: e454 b9bd c461 833e fd26 60be da26 81bd
000001a0: 3bcb ee3e 2607 563e 215e 9c3e c3ff 873e
000001b0: 59a5 55be 30e9 bdbc 4550 3b3d 303e 893c
000001c0: db3d 40bd 81ca 81be 5bad 933e 0b61 b83d
000001d0: 0ffa bdbd c41d a83e aecc 6d3c 1488 343e
000001e0: 3660 bd3c 12f7 b63e a43b 97be 5fed 983d
000001f0: c974 a1bd 24ed 34be 51ff d2bd c38a c73a
00000200: 89c4 8b3e ae96 04be e988 44bc e188 8cbd
00000210: 75f3 6dbe 7c37 aabe 2378 3dbe 0d8c 9bbd
00000220: 9405 1b3e 512c fd3e 7dfb 533e c27a e83e
00000230: 2c99 fabd 859b 5b3e fb8b 213f 7354 063f
00000240: 92f5 023e 78f1 cabd ec69 c23d fdc3 76bd
00000250: bf1e 293e 0a8e 593d fd61 2e3e 7fa2 ff3c
00000260: 1404 09be 239e 773d 80fa 58be 3507 933c
00000270: 02c5 ee3b 27c2 f43d a574 a43d fa23 3ebd
00000280: 0995 183e 8408 c23d 485d eabb 7357 04be
00000290: 890f 4b3e 2a5c bb3a 9800 003e f32e 113e
000002a0: 3338 80be 2527 573e bff7 4f3e 912f d53c
000002b0: 0d47 583e 3f33 20bd a62e c63e a2e7 29be
000002c0: 0e53 63be f65a c53e 3533 903e 82a4 673f
000002d0: e60f 9cbe d686 eebc eed4 063e 63eb 203a
000002e0: 0f3a 1f3e 82b2 8a3e 8130 34be b004 03be
000002f0: d07e 64be 110c 72bd 5a0c 34be d4ff 303e
00000300: 5527 cdbd 2c9a 9b3d cd41 b5bd dedc 72be
00000310: 3632 63be 73fb 32be 769c bd3d b6f1 8bbe
00000320: f2bd 443d 556e c5be 120f 863d 1c9a 213e
00000330: 5bf2 233e 4c8b 493c 75e1 a3bd c0b1 9bbe
00000340: 2a20 143e f78c 0139 c81a 0e3e df19 d93d
00000350: 222f 1f3e e759 cdbd 20de 8b3d 873e 123f
00000360: 9c30 6f3d 03f3 a03d fe45 8cbd f88c 0abc
00000370: 8d75 fe3d e8a7 773e 7600 42bd d41b fabd
00000380: ac03 edbe b274 24be 9070 96bd 58dc f53c
00000390: 7d88 4e3e 9e02 663d ddd5 3a3e 0fc0 693e
000003a0: 750d a4bd ac29 613e aff7 55be 4b0b 82bd
000003b0: 88c2 19bd 5d24 6fbe a3e4 7ebd 39d0 033e
000003c0: b7c6 1c3e 8c33 033e f248 223e 04d0 023c
000003d0: dede 3abe ec8c 0c3e d9b6 97be 32b9 533e
000003e0: 425b a23e 87a9 f43e 9f4c 4d3f 1bc6 923f
000003f0: 6807 ba3d ac59 9b3d 6eb2 b83e 860f e3bd

fc1.bias f4 [22]
-0.7317992 -0.3375815 0.4345636 -0.5361241 0.97551143 -0.35949498 -0.26210225 0.7658682
-0.7708845 -0.4212041 -0.46629918 -0.35036144 0.8460475 0.23542999 0.22602409 -0.50773484
0.2293916 0.3624267 -0.40977547 0.67643017 0.71621937 0.59384346
00000000: 3157 3bbf 7bd7 acbe 1f7f de3e 6e3f 09bf
00000010: 1ebb 793f ba0f b8be 4432 86be f00f 443f
00000020: b058 45bf 10a8 d7be c4be eebe 9362 b3be
00000030: 9296 583f 8f14 713e dc72 673e e9fa 01bf
00000040: a2e5 6a3e fe8f b93e 17ce d1be 872a 2d3f
00000050: 275a 373f 2006 183f

fc2.weight f4 [1, 22]
0.24832341 0.2772374 -0.44721532 0.27982238 -0.47808108 0.33129004 0.39825767 -0.6313912
0.28409117 0.45394117 0.35114792 0.36703873 -0.64005816 -0.37633255 -0.28751603 0.2726376
-0.35009003 -0.3879183 0.32364452 -0.5094384 -0.52137905 -0.41588405
00000000: 7e48 7e3e 0ff2 8d3e 68f9 e4be e144 8f3e
00000010: 0bc7 f4be d99e a93e 6ee8 cb3e dba2 21bf
00000020: 6674 913e fa6a e83e a9c9 b33e 80ec bb3e
00000030: dada 23bf a9ae c0be 4d35 93be 2897 8b3e
00000040: 003f b3be 3a9d c6be bcb4 a53e 8e6a 02bf
00000050: 1979 05bf c1ee d4be
